bipartite_edge_model.pth (torch, 10350 bytes, 9 tensors)

encoder.conv1.lin_l.weight f4 [32, 3]
00000000: 8424 19be b049 06bf 7449 0abf ebab 36be
00000010: 9590 023e c5d1 fabe 2f1d 193f b8f6 bebe
00000020: 5b86 3d3e bd1f cb3e 08fe 943e fec2 04bf
00000030: 5213 ba3e 0b15 08be 1d7c 82be ba27 d63e
00000040: 4c80 053f dbcb c3be 4bc8 263d 603c 9a3e
00000050: 794f b63e 408d b4be 70a2 5abe 271b afbe
00000060: c063 0ebf 265a d3bd e866 f4be 7c05 943d
00000070: 17b7 36be 6be0 cabe 4746 1fbe aea7 1dbe
00000080: 3ff5 f9be aecb d53e 9e9e d2be 9f29 cabd
00000090: 90a3 f4be ca6e 1c3e b84d 863e d0ee 24bf
000000a0: f00b ce3d dc31 353e 2ce2 013f b5d3 653e
000000b0: 1f4c 85bd ae5f 9bbe 9eea 453d 8fde d33d
000000c0: 8acd 883e 361f 8e3e 3567 8ebe f33a c93e
000000d0: 4250 cebd 809a 15bf 1e71 38be 8b31 d2be
000000e0: 49f7 5e3e 1b28 ae3e 07c8 75bd c8c4 97bd
000000f0: 75b0 9c3e 86f1 d83d 1508 85be f71e 6a3e
00000100: 71f2 be3e f789 1b3d 53ef 4cbe 0d39 0abd
00000110: aa0b a23e bef6 d53d 4d8b 0d3e 1374 1dbe
00000120: 1189 0fbf 2833 00bf f507 4dbe 5f66 22be
00000130: 84ba 733e 676c a93e 5e5e 1e3e 31e1 b33d
00000140: 9ca7 acbe 59bb 743e 9aef 88be 1c71 143d
00000150: 7db5 c5be 0dee 6fbe d716 b2be 082b 04bf
00000160: 9e8a a1be a045 983d 30e6 c83e 8a8c 09bf
00000170: d2bc 13bf d14e 37be 3298 9c3e c4e4 8e3e
-0.14955336 -0.5245619 -0.5401833 -0.17839019 0.12750466 -0.48988166 0.59810156 -0.37297606
0.18508284 0.39672652 0.2910006 -0.51860034 0.36342865 -0.13289277 -0.25485316 0.41827184
0.5214889 -0.38241467 0.040718358 0.30124187 0.35607508 -0.35264015 -0.21351027 -0.34200403
-0.55620956 -0.10319929 -0.4773476 0.072276086 -0.1784328 -0.39624342 -0.15554152 -0.15395996
-0.4881992 0.41756958 -0.4113664 -0.0987122 -0.47781038 0.15276638 0.2623117 -0.644269
0.10060871 0.17694801 0.50735736 0.22444041 -0.065086596 -0.30346435 0.04831945 0.10345184
0.26719314 0.27758187 -0.27813116 0.39302787 -0.10073902 -0.58438873 -0.18011901 -0.41053423
0.2177402 0.34014973 -0.060005214 -0.0741058 0.30603376 0.10592942 -0.2598273 0.22863375
0.37294343 0.03797337 -0.2001317 -0.033745814 0.31649524 0.10447453 0.1382267 -0.1537631
-0.5606852 -0.5007806 -0.20022567 -0.15859364 0.23801619 0.33090517 0.15465686 0.08783186
-0.33721626 0.23899592 -0.267453 0.036240682 -0.38615027 -0.23430653 -0.3478305 -0.5162816
-0.3155107 0.07435155 0.3923812 -0.5373007 -0.5770999 -0.1790116 0.30584866 0.2790891

encoder.conv1.lin_l.bias f4 [32]
00000000: c869 a5be 3906 013f d8cb 113f 8410 5bbe
00000010: 6c2f 2cbf dcbe d6be a703 8c3e 61dd abbe
00000020: 6f05 f1bd 44a9 5cbe 1132 923e 617e 1d3f
00000030: 68da f83e 5831 37be 2fcf a3bd cb33 20bd
00000040: fce9 d43e 91ae f6bd 7f3b fa3e b8a8 dbbe
00000050: 54ab 9fbd b09c c8bd f65c c4be 3005 e6be
00000060: de4d c63d 6407 de3e 463b 2abe 2797 823e
00000070: 0d73 71be acfa 093f bb36 a1be d510 63bd
-0.32307267 0.5040012 0.56951666 -0.21393019 -0.6725986 -0.4194249 0.27346537 -0.33567336
-0.117686145 -0.21548945 0.28553823 0.61520964 0.4860413 -0.17889917 -0.079985015 -0.039111894
0.41584766 -0.12045015 0.48873517 -0.4290216 -0.0779635 -0.09795511 -0.38352174 -0.44925833
0.09682821 0.43365014 -0.16624174 0.25505945 -0.23579045 0.5389812 -0.3148707 -0.055435974

encoder.conv1.lin_r.weight f4 [32, 3]
00000000: da1d 443e c87a c2be 4a2d ad3e 17c4 a1be
00000010: ca30 f5bd c5fe 8cbe e02b 5abe b1ff 763d
00000020: f894 babe d424 90be 9c1a bd3d 8a6c d23d
00000030: 53fd 953e af58 a13e f22a 05bc 362c 9b3e
00000040: d3e2 d7bd def9 943e 6555 123d 4a4e b5be
00000050: 76d3 e7be 25b0 0bbf a6ec 89be ae4f bb3e
00000060: 7968 46be 26fc 533e 1788 dd3d 3d7e cabd
00000070: 9682 cbbe 1c19 413e 1b9c 0ebf 33df 003f
00000080: 3030 923d dab7 073f ae1a d7be 01c7 de3e
00000090: c129 02bf 6440 db3e f751 c43e cd87 d93d
000000a0: 4d8d a6bd 3091 ec3e 1bbd 133f b368 71be
000000b0: 83c3 eb3b 8226 c83e 2913 00bf 7833 9bbe
000000c0: 0182 883d 27be d8bc dc2b d3bd b54c 15bf
000000d0: 074f 273e 9848 4f3d 15cf 613e 9a4f f5be
000000e0: 2748 0abd f9a9 5abe 08d0 87be 8be6 e83d
000000f0: ed35 bd3e 07ce fe3d 6968 e8be 5c09 b3bd
00000100: e96c c3be 2e7b 6e3e 8b2d 80be 13a2 06be
00000110: 16ee c5be 2b21 c53e 9ae3 903d 08ae b9bd
00000120: abb6 3fbe 2186 83be e729 e1be 81d6 12bf
00000130: 4d37 0cbc bc66 893e d7af 01bd d215 ec3e
00000140: 6a93 b93e 86f9 f6be 963a 7cbe 92a8 7bbe
00000150: 9750 2cbc 8b7b e53e e352 18bf 4f03 523e
00000160: 94b1 b4bd 4552 77be be7f ad3d f031 86bd
00000170: 1cfd e63e ab22 b13e d45e b93e 14b9 e0bc
0.19152012 -0.379843 0.33823615 -0.31594917 -0.119721964 -0.27538124 -0.213058 0.06030244
-0.3644178 -0.28153098 0.09233591 0.102746084 0.29294834 0.31512973 -0.008127915 0.30307168
-0.1054131 0.29096884 0.03572597 -0.35411292 -0.4527852 -0.5456565 -0.2693836 0.36584228
-0.1937579 0.20701656 0.10816973 -0.09887359 -0.39748067 0.18857235 -0.5570695 0.50340575
0.07138097 0.5301491 -0.42012542 0.43511203 -0.5084496 0.42822564 0.38343784 0.10621605
-0.0813242 0.4620452 0.5771043 -0.23575096 0.0071949377 0.3909188 -0.50029236 -0.30312705
0.06665421 -0.02645786 -0.103111 -0.5832017 0.1633874 0.05060634 0.22051652 -0.47912294
-0.033760216 -0.21353902 -0.26525903 0.113720976 0.36955205 0.1244164 -0.4539216 -0.087420195
-0.3816903 0.23289177 -0.25034747 -0.13147764 -0.38658208 0.38501868 0.070746616 -0.09066397
-0.18722026 -0.2568827 -0.4397728 -0.57358557 -0.008558107 0.26836193 -0.031661835 0.46110398
0.3624528 -0.48237246 -0.24631724 -0.24576023 -0.010517261 0.44820818 -0.59501475 0.20509075
-0.08822933 -0.24152477 0.084716305 -0.065524936 0.45114982 0.34596762 0.3620516 -0.027432002

encoder.conv2.lin_l.weight f4 [16, 32]
00000000: 9247 f83a f49a 103d acc0 b9bb 27c0 00be
00000010: 58bc 0f3e 9436 8dbd 2354 993d 02fb 903b
00000020: d6d5 2abd 27ab 23be 0987 6a3b 137e 07bd
00000030: 0d70 c03c 1185 a2bc 94c5 11be 906b 183d
00000040: 2ff8 68bd c539 173e 7c0b 9fbd cfee afbc
00000050: 3ecc a93d 4788 013c 5062 89bd fb8c 003c
00000060: 2174 2dbe 8e0e ca3d 1c72 163e d3a8 a03d
00000070: 3288 b7bd 5e6b 753d 1744 b23a 961e 3fbd
00000080: f54a 073e 4d93 153c 13c3 61be bf60 623d
00000090: 27ca a83d 0bb1 3bbd d3fc 97bd 06b6 8dbd
000000a0: ae80 2ebd 6361 463e b53d 5fbe 13bd 2a3d
000000b0: 541f 40be b34f 28be 6b6c 1d3e 0982 cabd
000000c0: 8387 06be 9906 673d 2d68 253d 2255 113e
000000d0: 3558 833c 8365 d63d 3590 8bbd 63f9 16be
000000e0: 8510 303e 39ea e63d 7367 2ebe 24ae 513c
000000f0: ca91 dbbd 504a 20be 002e 733d 0d63 0bbe
00000100: 9114 fcbd 75fe edbd 276a ed3d ab63 aabd
00000110: d5b8 c5bd a9ec 34bd 5b8a cd3d f9e9 303e
00000120: aadc a6bc 2b14 1a3e 9236 f2ba e59f 013e
00000130: fb85 de3d 0642 03be 6609 babd 722b 9e3d
00000140: 005e c93d 68e5 283e 35bf 913d a867 bc3d
00000150: e062 d9bd a740 a63d 111d e63d 50db fc3d
00000160: 0041 213e 22c8 8c3d 2c4b 07be 1c5d 283d
00000170: b829 b7bd 88e8 f8bd fdc3 ab3d 76dc 863c
00000180: d54b 1cbe 0686 0b3e 2935 cb3d 8be5 efbd
00000190: 2388 f93d 56de f5bd e70f 403e dd6f 0c3e
000001a0: c1ac 0c3e be73 40be 4407 b6bd 4868 863d
000001b0: 693a c6bd 670b 12bd ef76 6a3e 6b69 033e
000001c0: 977b 723e 759e c4bd 7fe1 193d c6f9 5abe
000001d0: 8f26 39bc 0e98 a9bd 15ac e03c e849 0a3e
000001e0: 9452 24bc 16e1 f9bd d8e1 1ebe 1e46 a33d
000001f0: 8a56 96bc f6c1 3c3d ddc5 0a3d f822 073e
00000200: c314 303d deb1 3e3d f3d8 a33d 0a8b 673d
00000210: 082b 82bd 75c9 373d a34e 4b3e 3f00 85bd
00000220: 3e3b f3bd 32e6 fa3d 6e8b 3fbe 2f53 cf3d
00000230: cce9 a13d 4dbb 8eba fc52 9fbe 2e0e b6bd
00000240: 7c28 59bd 0573 1ebe 20e7 7cbd e3e4 0e3e
00000250: 3e8a d03d bbbc 1a3e 32b6 1b3e a6ad 70bd
00000260: 3be8 26be 3f37 113e 7676 bfbd 9ea6 313d
00000270: f8c6 a23d 4fe2 14bc 79c3 823c 87d0 70be
00000280: 2e7a a63c 49b9 9b3d d9f0 b43d fe8e 2a3d
00000290: a09c b7b9 725a 2cbe 4dc8 03bd c032 123e
000002a0: 3bff a6bd f546 fcbd c280 debd dcd6 2a3c
000002b0: 574f c8bc 31ae 293e c44e 783e 1344 233d
000002c0: 3c94 cfbd 4491 67bd 526e 59bd e0c0 a4bd
000002d0: 86fb 02bd 3e71 863d aca3 f43d c809 1b3e
000002e0: 791e d03d 3658 fe3d f6a4 e83d 7b99 7f3d
000002f0: 33fc 5e3d 3eec 993d edc2 633d 85c3 00be
00000300: cb0f 533e cf13 2e3e e1a3 2a3e e153 66bd
00000310: 4087 1c3e be5c 023d 541b afbd e2e4 083e
00000320: d5a3 073e 58ed 0d3e f799 2a3e 91ef 203e
00000330: 4e8f 373d 1bc4 02bd a266 663d 57ca f8bd
00000340: c5ec 463e 7f51 843d 0ea9 0fbe a16b 903d
00000350: 7445 b93d 5215 ebbd cb31 85bd 6c7c f63d
00000360: fe99 1c3d 0709 8fbd 7977 0c3e 18f2 ed3d
00000370: f19b d23d 8346 36bd 17bf d2bd fd05 9b3a
00000380: 190b e33d 9746 6d3d 2086 17be bba8 81bd
00000390: b70e b23d 0f5e e7bd 1ff4 6f3d bea1 f93d
000003a0: 84ec 57be 0fbf 0cbe 06f0 37be b3a5 9ebd
000003b0: e96b 1ebc 3f41 173d 695d 08be f8e4 abbd
000003c0: 205d 6b3c b0ab 0f3e 4a8b 62be 6647 cdbd
000003d0: 6c62 24be 78a4 19be d6e1 d23c 3cf7 aebd
000003e0: 2645 d1bd e4f6 1b3d e8f3 433d 1c7b b63d
000003f0: 5d92 2e3e 64cb 50be ac6d ca3c 129f 01bd
0.0018942228 0.035304025 -0.00566872 -0.125733 0.14036691 -0.068951756 0.07486751 0.0044244537
-0.041707836 -0.15983258 0.0035786054 -0.033079218 0.02349093 -0.019838842 -0.14235526 0.037211955
-0.05687731 0.14768131 -0.07765862 -0.021476177 0.08290909 0.007906026 -0.06708205 0.007846112
-0.16938831 0.09866057 0.14691967 0.07844701 -0.08961524 0.059916846 0.0013600615 -0.04666003
0.13212188 0.0091293575 -0.22047071 0.055268046 0.082416825 -0.04582314 -0.07421269 -0.06919484
-0.042603187 0.19373088 -0.21800883 0.04168422 -0.1876195 -0.16436653 0.1537339 -0.098880835
-0.13137631 0.056402776 0.040382553 0.14192632 0.016033271 0.104685806 -0.06814615 -0.14743571
0.17193802 0.11275143 -0.1703165 0.012797866 -0.107211664 -0.15653348 0.05937004 -0.13612004
-0.1230861 -0.116207995 0.115925126 -0.083197914 -0.096543945 -0.04417101 0.10036155 0.17276753
-0.020368893 0.15046756 -0.0018479398 0.12658651 0.108653985 -0.12818155 -0.09083824 0.0772313
0.09832382 0.16493762 0.07116548 0.09199458 -0.10614562 0.081178 0.11236013 0.12346518
0.15747452 0.0687411 -0.1321227 0.04110442 -0.08943504 -0.12153727 0.08386991 0.016462546
-0.15263303 0.13625345 0.09922249 -0.11713704 0.12184169 -0.12005298 0.18756066 0.13714547
0.13737775 -0.18794152 -0.088881046 0.06562859 -0.096791096 -0.035655405 0.22896932 0.12833183
0.23679958 -0.09600536 0.037568565 -0.21384344 -0.011300697 -0.08280955 0.027425805 0.13504755
-0.010029454 -0.12201135 -0.1551584 0.07972358 -0.018351812 0.046083413 0.033880103 0.13196933
0.04298855 0.046556346 0.08000364 0.056529082 -0.06355864 0.04486986 0.19854216 -0.064941876
-0.11876534 0.122509375 -0.18705532 0.10123288 0.07905921 -0.001088956 -0.31118 -0.08889423
-0.053017125 -0.15473564 -0.061743855 0.13954501 0.101826176 0.15111057 0.15206221 -0.058759354
-0.16299526 0.14181231 -0.093487665 0.04337179 0.079481065 -0.009087159 0.01596235 -0.23517047
0.020321932 0.076037 0.088350005 0.041640274 -0.00035021175 -0.16831377 -0.032173444 0.14277172
-0.0815415 -0.123182215 -0.10864402 0.010427203 -0.024451895 0.16570355 0.24248797 0.039859843
-0.10135695 -0.05653502 -0.053083725 -0.080446005 -0.031978153 0.06564568 0.119452804 0.1514045
0.10162062 0.12419169 0.11359589 0.06240223 0.054439735 0.07515763 0.055605818 -0.12574585
0.20611493 0.16999744 0.16664077 -0.056232337 0.15285969 0.031826727 -0.08550134 0.13368562
0.1324609 0.1386007 0.16660295 0.15716387 0.0448144 -0.031925302 0.056250222 -0.12147968
0.19426258 0.06460857 -0.14029333 0.070517786 0.0904645 -0.11478676 -0.06503638 0.1203545
0.038232796 -0.06984144 0.1371745 0.11618441 0.1028365 -0.04450084 -0.10290354 0.0011827346
0.11086101 0.057928648 -0.14797258 -0.06331011 0.08694213 -0.11297237 0.05858242 0.12189053
-0.21086317 -0.13744758 -0.17962655 -0.07746448 -0.0096692825 0.036927458 -0.13316883 -0.08393282
0.014365464 0.14030337 -0.22123447 -0.10023384 -0.1605317 -0.15004146 0.025742453 -0.0854325
-0.10218267 0.03807725 0.04784003 0.089102 0.1704802 -0.20390087 0.024710499 -0.031645842

encoder.conv2.lin_l.bias f4 [16]
00000000: 601d 083e 68c2 3f3e 38ce 10bc 95d8 34be
00000010: f694 9cbd 796c 933d 6bf0 113e 539d debd
00000020: 35cf 17bd 0fc4 b5bd e241 613c 2af5 233e
00000030: da99 4f3e d1ed 543d d0a8 54be f034 0f3e
0.13292456 0.18726504 -0.008838229 -0.17660744 -0.076455995 0.07198424 0.14251868 -0.10869851
-0.037062842 -0.08875286 0.013748618 0.16011491 0.20273533 0.051984612 -0.20767522 0.13985038

encoder.conv2.lin_r.weight f4 [16, 32]
00000000: 078e edbd 35d6 213c f705 6f3d a11b 81bc
00000010: 96b1 e33d 6e5a 9bbd 9a78 913d 1f7e 673c
00000020: 1d81 1dbe 882b 133d c7c7 0e3c 8506 b8bd
00000030: 8c98 53bd e420 b73d e022 15bd 2c04 b93d
00000040: e924 6dbd 56d0 b13d 0381 b8bd 3558 fb3d
00000050: 35b3 b43d 958d 56bd 618f ff3d 8eb5 e3bd
00000060: 520e 01be b285 823d a371 4f3d b555 e73c
00000070: 4cd3 003e 0ce9 b43d 8f71 0d3d df29 ed3d
00000080: 9394 a2bd 5e0a c0bd 7ddf 073e e156 1e3d
00000090: d416 65be 8b58 ab3d 5e23 223d 09ad 36be
000000a0: 666f 05be e6b3 593d 6778 953d 65ce 1fbe
000000b0: 498b e53c be14 9dbc ca87 c23d 6f66 633d
000000c0: 6638 1abe 5f01 f73b 74fa 3b3e 8479 e6bd
000000d0: 8b66 cebc 3498 70bd ce8c ae3d aa02 69be
000000e0: 2773 20be 6807 d53d 88cc 793d a69b 7b3d
000000f0: f9e7 cc3d 286b e1bd ba74 57bd eec9 c53d
00000100: 6b4f 553d 9f3a 44bc 51ae 1d3e d9de 2cbd
00000110: e2e5 90bd 764d 1cbd 7583 a0bd b919 e9bd
00000120: b2db 54be fe1a ccbd 913f 9c3d b2c2 92bc
00000130: a3be adbd fc45 1cbe 7483 70bd 5915 abbc
00000140: 8771 50bd 3012 adbd b87a 9abc 16f2 38bc
00000150: 9446 a83d 4e7d 943b bea5 bcbd 2623 32be
00000160: 1aae eebd 0c75 1dbe 6380 59be aec6 11be
00000170: 355f b4bd 48d5 98bd 4054 893d 1358 0b3e
00000180: f647 a8bd 417d a53c ec72 d73d d964 943d
00000190: c710 b4bd a606 c3bd 6e93 5d3d 8acf 5b3e
000001a0: 1c49 4a3c 149c 54bd e7ef 0b3e eed6 ccbd
000001b0: e974 803d 24d7 393d af68 313e b967 b3bc
000001c0: 7cdb 05bb fea0 9d3d 9c63 6cbe b694 bcbb
000001d0: 9962 3e3d 0930 bebb 0451 303b 7f5c cdbd
000001e0: 5bbf f9bd 6239 203e 1c69 873d 63b2 ffbd
000001f0: 7f3c 213d f1f0 3cbe 9bd1 8fbd 2a6e ba3d
00000200: 9ec8 e7bd 524c 9b3d 2f3d f93d 3889 1ebe
00000210: d9ca 06be 9c7a 3abd 36b4 0f3d 271e 38bb
00000220: ae00 1abe ebfb 503e 479f 5cbc f155 193e
00000230: dd70 63bc 3d3d f0bd 709c 29be ff93 99bd
00000240: 24bf 66bd 08af 0fbd 9c62 3ebd bfc9 88bc
00000250: e542 05be fe36 f8bb 8208 29be d587 b0bd
00000260: fb2a 5f3d 6005 36bd 92ba 2bbd 5a0e 3e3d
00000270: a210 843d 6ee3 473d 6e74 37bd f100 3d3d
00000280: a03f 5cbc 7700 46bd aeb5 c23d 95b9 953d
00000290: 7020 08be abe1 ab3d 28c3 0e3e 240d de3c
000002a0: 8905 a6bd bc70 85be 974b 9f3d 829c 413d
000002b0: cf9d 5e3c bfcb 833d 4bcc d33d 3760 1dbe
000002c0: eec9 863d 5867 413c bb8b 06be ef58 1f3d
000002d0: 0334 273e 2369 26bc 9dcb 01be 9780 c23c
000002e0: 9cbd 9bbd 8254 e7bd 5bb0 cf3d 6aa0 993d
000002f0: ea29 363d db60 0f3e ba47 49bd 2c73 813d
00000300: afba 01bd 7039 bf3d 1ebc 533e 5f26 2a3e
00000310: 3ebf 903d 4a42 dabd 7a30 7cbc 25f4 373c
00000320: 9fd2 82bd 4ed4 8e3a 935c ed3d fa45 263d
00000330: 3bed 8a3d 31f3 c6bd ed9b bb3c 9e61 be3d
00000340: 400f 5bbd 0d40 fb3d 6fb6 1c3e c5c6 fa3b
00000350: 1bc1 85bd d0e1 993d 62fd ea3c 9a33 ad3d
00000360: 6366 93bd ca85 d5bd ab9a 153d 897c e0bb
00000370: 1e6d 2d3e 8e36 c13d 6b5e 75bd 38ed cf3d
00000380: 24ce 753c 9f66 193e f7e9 643d e683 ef3d
00000390: c98e e8bd 530c 5fbe 0cb5 523d 6601 9e3d
000003a0: 2998 39bd d2a6 45be c655 44be 0b40 d6bd
000003b0: 920a ee3c 5d37 db3d ed29 a7bd 3611 e33d
000003c0: 0517 c03c 40e9 57bc 6a02 0bbd 79e4 8abd
000003d0: 9730 c1bd fd97 e03d f6d3 ed3d fd2d 813a
000003e0: 5df3 d3bd 3649 e83c 7d9b 42be b611 063e
000003f0: 6039 4d3d 1710 1fbd 90bf 973d de51 d6bc
-0.11599355 0.009877731 0.058355298 -0.015760245 0.11117856 -0.075856075 0.07103081 0.014129191
-0.15381284 0.035930187 0.008714623 -0.089856185 -0.051659152 0.0894182 -0.036410213 0.09033999
-0.05789653 0.08682315 -0.09008982 0.122726835 0.088232435 -0.052381117 0.12478519 -0.11118613
-0.12603119 0.063731566 0.05064548 0.02823911 0.12580603 0.08833513 0.034532126 0.11580252
-0.079384945 -0.093769774 0.13268848 0.038657073 -0.2237199 0.083664976 0.03958451 -0.17839445
-0.13030776 0.05315008 0.072983555 -0.15606077 0.028020518 -0.01917493 0.09498556 0.05551761
-0.15060577 0.0075380052 0.18357259 -0.11253646 -0.02519538 -0.058738902 0.0852295 -0.22754923
-0.15668927 0.10401803 0.06098607 0.061427735 0.10005183 -0.110067666 -0.052601553 0.09657656
0.052077692 -0.011976867 0.15398528 -0.04220471 -0.07075097 -0.03815981 -0.078375734 -0.11381859
-0.20786932 -0.09966086 0.07629312 -0.017915104 -0.08483627 -0.15261072 -0.058719113 -0.020884203
-0.050889518 -0.084507346 -0.018857345 -0.011288187 0.08216587 0.004531539 -0.092113 -0.1739622
-0.11654301 -0.15376681 -0.21240382 -0.14235947 -0.08807222 -0.07462555 0.067055225 0.13607816
-0.082168505 0.020201327 0.105199665 0.07245798 -0.087922625 -0.095227525 0.054095678 0.21465889
0.012346532 -0.05190666 0.13665734 -0.10001932 0.06272299 0.04537119 0.1732509 -0.021900045
-0.0020425012 0.076967224 -0.23084873 -0.0057550324 0.04648075 -0.005804066 0.0026903758 -0.10027408
-0.12194701 0.1564689 0.06611845 -0.124851964 0.039364334 -0.18451287 -0.07022401 0.091030434
-0.113175616 0.07582916 0.12169873 -0.15482032 -0.13163318 -0.045527086 0.035083972 -0.0028094144
-0.15039322 0.20408599 -0.013465709 0.1497419 -0.013881889 -0.1173043 -0.16563582 -0.07498931
-0.05633463 -0.035079032 -0.04648076 -0.016697763 -0.130138 -0.007574915 -0.16507152 -0.08619658
0.05448435 -0.04443872 -0.041925974 0.046400405 0.06448485 0.04880088 -0.04478877 0.046143476
-0.013442904 -0.048340287 0.09507309 0.073107876 -0.13293624 0.08392652 0.13941634 0.027105875
-0.081065245 -0.26062572 0.077780895 0.047268398 0.013587429 0.06435346 0.103417 -0.15368734
0.06581484 0.011804424 -0.1313924 0.038903173 0.16328435 -0.0101569025 -0.12675329 0.023742957
-0.076045245 -0.112954155 0.10141059 0.075013 0.044473566 0.14001791 -0.04914067 0.063207954
-0.031672176 0.09337127 0.2067723 0.166162 0.070677266 -0.10657175 -0.015392417 0.011227642
-0.06387829 0.0010897012 0.11589923 0.04059408 0.06783529 -0.09714354 0.0229015 0.09295963
-0.05348134 0.12268076 0.15303968 0.0076530897 -0.065309726 0.075137734 0.028685275 0.08457108
-0.07197263 -0.10425909 0.036524456 -0.0068507832 0.16936156 0.094342336 -0.059904497 0.10152668
0.015002761 0.14980553 0.05588719 0.116950795 -0.11355359 -0.21782045 0.05144219 0.077151105
-0.045311127 -0.19301918 -0.19173345 -0.10461434 0.029057775 0.10703919 -0.081622936 0.11087267
0.023448477 -0.01317817 -0.03393785 -0.06781859 -0.09433096 0.109664895 0.11612694 0.0009855625
-0.10349152 0.028355222 -0.19004627 0.13092694 0.050103545 -0.038833704 0.074095845 -0.026162084

decoder.lin1.weight f4 [8, 32]
00000000: 30c2 e3bd ef4d 763d ae74 9ebd cf51 20bd
00000010: 4b7d cabd 9738 c73d 4bb2 5dbb 846e eb3d
00000020: 2fb4 153e b980 db3d e865 f83b a6a5 ca3c
00000030: 118f 273e b041 b23d f831 45be e7c5 473e
00000040: f2a6 94bd aeeb ec3b 1129 0dbe 4cfa b63c
00000050: 3e0e 56bd 623f c7bc 1a0d e4bd 13a8 993d
00000060: 720a 0bbe 574d cd3d c0a5 1e3e 4423 543e
00000070: d1db da3d ca7a c6bd 35a0 b83d 2877 223e
00000080: 2a41 773c 5db5 b5bd c1b0 b13d a232 b13d
00000090: d3f7 edbc 0ba8 623d 3960 803c 7d0a 32be
000000a0: 4c82 5f3d eaed ecbd 992e d93d b642 423e
000000b0: 28e5 2b3e 406d 2b3b 27b5 923d 79f9 43be
000000c0: eb4c f1bc 9096 133e 2408 32be 96b8 02be
000000d0: a220 32be dc06 e1bd 3031 edbc 9bb3 91bd
000000e0: 3793 d1bd e1ea b83d f03f 6e3c 8f6c 21be
000000f0: dbbf 313e 55dc f93c 27ff 92bd 8e34 293e
00000100: ea13 49be 9e62 443d c89b fd3d dafa 0ebe
00000110: 6e15 1bbc af73 123d a028 cebd d4be 50be
00000120: 6099 67bd f46e bb3d a86b de3d e0cb d4bd
00000130: c36d 3a3e ce4c 79bd e14f bd3d 86df fa3d
00000140: 4bb8 3c3d b1c1 c83c 1b82 403d 89c2 dd3d
00000150: 5c50 a43d 60b6 89bd c4a3 06be a053 43bb
00000160: 6f85 99bd cd65 643e d7eb 19be bc45 af3d
00000170: 8b3e debd 4ae2 c6bd ab4e d83d eecc 0c3d
00000180: ae5f 443d f579 1fbd dccf 11bd b059 033d
00000190: c9b7 92bd ae70 50bd 97c5 dabd f575 89bd
000001a0: dbbe 103d 516d 16be 7a92 2ebd 12d9 25be
000001b0: 6576 c33d 1b22 32bd 971d b83d b2bb cbbd
000001c0: b177 de3c df6e e53c a2b1 1fbd d681 9d3d
000001d0: e43d 19be 728a f73c 5c37 4f3d 8841 193e
000001e0: 527d c6bb f741 26bd f613 163e 9cff d5bc
000001f0: ab60 69bd f4ad ac3d d3d5 f53c 8ce8 92bd
00000200: 4b45 c5bc ed9d 833d 246b 2b3c e191 b13d
00000210: fec2 09be c4c9 d73d ee22 893d e575 b1bc
00000220: d589 8b3d 6366 35be bf46 13bd c039 6dbd
00000230: 0092 573d 49b3 97bd db7d d23d 0cfb 2ebd
00000240: cff2 c73d e61d 383e 15b1 ed3d 2f55 e9bd
00000250: 22f4 84bc 3a52 babd c8f6 db3d 9375 073e
00000260: 2a23 0f39 2638 90bc 573a ae3b 2f89 fb3d
00000270: 0372 813d 4098 423e a9b5 e53d 5671 98bd
00000280: 4272 e3bd df3b aabd 7467 8c39 2063 7bbd
00000290: 79da af3c 7462 a6bd ee46 853d 9f44 dfbd
000002a0: d3f8 88bd 7bce 60bd ed50 763d 459f ac3d
000002b0: 15f6 9dbd c1d0 443d e668 5bbe 3ec8 18bd
000002c0: 5f56 3abe f0cb 9fbd 0b92 b5bb a657 8e3c
000002d0: 6114 de3d b07a 47bc d4b7 ebbd d74f 783c
000002e0: 75f7 1c3d 54fb 883d a2ef 64be 6b20 063d
000002f0: 1a51 10bd 1fd4 95bd 3f7f be3d 9942 b0bd
00000300: d90a 20be 1433 053e 17a3 bbbd 23b4 7ebd
00000310: 4ddb ee3d 57c0 b4bd 0aad a83c b81e 2fbd
00000320: 5757 823e 980e 593d 239f bebd 77e3 713e
00000330: 30e7 5a3e 64c6 293d b47c 90bc 3251 01bb
00000340: 8410 e63d 3e22 103e ec8f abbd 4251 ae3c
00000350: 7fea e2bd 5627 2539 ca01 0d3e 7994 6f3d
00000360: a711 f3bd 8f16 e6bd cc72 19bd 59f3 68be
00000370: 9466 38be 7247 433e acca 1cbe b744 083d
00000380: d681 79bd afc3 0ebe fd0b 04be ac80 a9bd
00000390: b667 fcbb 3559 c4bd 311c bbbd 534c 853d
000003a0: bb94 303d 5c53 08be 3b1b 45bd 6818 38bd
000003b0: c1d9 90bd c213 8c3d a335 00be 0b68 07be
000003c0: 4bd1 073e e4c5 d8bd 95c4 10be ed0b 3d3e
000003d0: ca72 14be cfa6 cd3d aceb 8dbc ba7c 1d3e
000003e0: 19ea 3e3d 5950 9fbd 9431 173e d53a 293e
000003f0: b53d d83d dacd 653d bcae f4bc 5214 48ba
-0.11121023 0.060132917 -0.07737099 -0.03914052 -0.09887179 0.097275905 -0.0033828195 0.114956886
0.14619516 0.10717911 0.0075805075 0.02473719 0.16363169 0.08703935 -0.19257343 0.19509088
-0.07258405 0.0072302436 -0.13785197 0.022336148 -0.052259676 -0.024322215 -0.111353114 0.07502761
-0.13578203 0.10024517 0.15492916 0.20716578 0.10686458 -0.09691389 0.09014932 0.15865767
0.01509122 -0.08872483 0.08676291 0.086522356 -0.029048836 0.05533604 0.015670883 -0.17386813
0.05456762 -0.11568816 0.10604591 0.1897076 0.16786635 0.0026157647 0.07163458 -0.19138135
-0.029455623 0.14412904 -0.17385918 -0.12765726 -0.17395261 -0.109876364 -0.028954118 -0.07114335
-0.10233157 0.090291746 0.014541611 -0.15764068 0.17358343 0.03050057 -0.07177573 0.16523954
-0.19636503 0.04794561 0.123832285 -0.1396288 -0.009465558 0.035754856 -0.10066342 -0.20385295
-0.056542754 0.09152022 0.108603776 -0.103904486 0.18205933 -0.060864262 0.09243751 0.12249665
0.046074193 0.024506422 0.04699908 0.1082812 0.0802314 -0.067242384 -0.13148409 -0.0029804483
-0.074961536 0.22304459 -0.15031372 0.08558223 -0.10851773 -0.0971113 0.1056188 0.034375124
0.04794281 -0.038934667 -0.03559862 0.032067955 -0.071639605 -0.05088871 -0.106822185 -0.06711952
0.035338264 -0.14690138 -0.04262016 -0.16196087 0.09544066 -0.043489557 0.08990019 -0.099479094
0.027156683 0.028006969 -0.038987763 0.0769078 -0.14965016 0.030217383 0.050589904 0.14966404
-0.00605742 -0.040590253 0.14656052 -0.02612286 -0.056976955 0.084316164 0.030009186 -0.07173261
-0.024080893 0.06426606 0.010462556 0.08670402 -0.1345329 0.105365306 0.066961154 -0.021662662
0.06813399 -0.17714839 -0.03595614 -0.057916403 0.05262947 -0.07407243 0.10277911 -0.042719886
0.09763109 0.17980155 0.11606041 -0.113932006 -0.016229693 -0.09097715 0.10740429 0.13228445
0.00013650642 -0.017604899 0.0053170132 0.12282025 0.06320574 0.19003391 0.112162896 -0.07443492
-0.11105777 -0.08312201 0.0002677996 -0.06137383 0.02146648 -0.08124247 0.065076694 -0.1090176
-0.066880845 -0.054884415 0.06013577 0.08428816 -0.07712952 0.048050646 -0.21426734 -0.03730034
-0.1819701 -0.0780257 -0.0055410913 0.017375778 0.10843731 -0.012175247 -0.11509672 0.015155754
0.03832193 0.06688562 -0.22357038 0.03274576 -0.035233594 -0.073158495 0.09301614 -0.086064525
-0.15629138 0.13007766 -0.09161966 -0.06218351 0.11662922 -0.088257484 0.020590324 -0.042753905
0.2545726 0.052992433 -0.09307697 0.23621927 0.21377254 0.041448966 -0.017637588 -0.0019732234
0.11233619 0.14075562 -0.0837706 0.021278981 -0.11079883 0.0001575028 0.13770214 0.058491204
-0.11868601 -0.112347715 -0.037462994 -0.2274908 -0.1800788 0.19070223 -0.15311688 0.033268657
-0.060914837 -0.13941835 -0.12895198 -0.08276495 -0.007702793 -0.095873274 -0.091362365 0.06508698
0.04311059 -0.13313049 -0.048121672 -0.04494515 -0.07072783 0.06839706 -0.12520461 -0.13223283
0.13263433 -0.1058462 -0.1413749 0.1846158 -0.14496914 0.10041582 -0.017324291 0.1537961
0.04660997 -0.07778997 0.14765006 0.16526349 0.10558645 0.05610452 -0.029868476 -0.00076324225

decoder.lin1.bias f4 [8]
00000000: 7033 fabd 7806 823d c270 103d 63af 35be
00000010: 73ee 763e 2bd5 84be 77ce a33d e9ca d13d
-0.12216842 0.0634889 0.035263784 -0.17742686 0.24114399 -0.25943884 0.079983644 0.1024378

decoder.lin2.weight f4 [1, 8]
00000000: ed62 80be 6aa4 f2bc 49ca 43be 30ea 803e
00000010: cabb 9bbe 6e1b d63d 6294 94bd 2974 22be
-0.25075474 -0.029619414 -0.19120134 0.2517867 -0.3041671 0.104544505 -0.07254864 -0.15864624
