bipartite_edge_model.pth (torch, 10350 bytes, 9 tensors)

encoder.conv1.lin_l.weight f4 [32, 3]
000000 6e f0 c1 3c c0 f8 4b 3e 68 94 17 bf 6c de de be
       0.023674216 0.1991911 -0.59210825 -0.4352907
000010 fb df a7 be 8a 83 07 3f fc 76 d7 3d d0 5d 20 be
       -0.3278807 0.5293509 0.10520741 -0.15660787
000020 52 86 02 3f 1a bd 3d bd 96 a2 bf 3e 47 64 0e bf
       0.50986207 -0.04632292 0.3742873 -0.5562176
000030 3c 30 9d be 9e c6 15 3f 52 9b 01 bf eb bc 0a 3d
       -0.30700862 0.5850619 -0.50627625 0.033871572
000040 f4 26 d8 be fe 7b 87 3d d0 61 2e be e7 da 8b 3e
       -0.4221722 0.066154465 -0.170295 0.27315447
000050 4e ee 41 3e b5 e6 90 be db 38 2e be ca 33 39 3e
       0.18938562 -0.28301015 -0.17013876 0.18086162
000060 56 1c 56 3d 77 a1 ac 3d 54 86 bd 3e 2a be b7 be
       0.052273117 0.084292345 0.37016547 -0.3588727
000070 6c ca 26 bd 93 06 ba be 69 55 98 bd 15 85 05 bf
       -0.04072039 -0.3633314 -0.07438166 -0.5215619
000080 c5 d6 e0 3e b1 2b c7 3e 70 7c 18 3e 57 05 e2 be
       0.43913856 0.3890052 0.14891219 -0.441447
000090 f0 4f 5b be 57 7e d1 bd 75 a1 0a bf a3 ce 18 3e
       -0.21417212 -0.102291755 -0.54152614 0.14922576
0000a0 10 46 f5 3e 42 2d 03 bf 01 f6 18 be d6 8e a3 3e
       0.47905016 -0.5124093 -0.14937593 0.31944913
0000b0 8b cd f2 3e 6e 06 c6 3e 07 cd 2b bd 82 4a a6 be
       0.47422442 0.3867678 -0.041943576 -0.3247872
0000c0 0f 94 c7 3e 6b 4d b8 3d b9 26 93 3e b6 a2 ab be
       0.38980147 0.08999141 0.2874048 -0.33522576
0000d0 d0 0c 22 3e 62 1a 01 bc cb 97 40 bd 31 56 84 3e
       0.158252 -0.007879825 -0.04701976 0.2584701
0000e0 7b b5 13 3f 16 36 41 be f9 8c a2 3d de 6a d4 3e
       0.5769879 -0.18868288 0.07937045 0.41487783
0000f0 8d 6a 29 bf 90 78 d3 be fb f4 11 be c8 c4 bd be
       -0.6617821 -0.4130292 -0.14253609 -0.37064195
000100 02 a5 13 3e c8 f6 e6 3d 6f 9f 53 be 2d dd e9 be
       0.14418414 0.112775385 -0.20666288 -0.45676556
000110 ec 3b 57 be 2c 01 06 bf 25 40 ca 3d 15 b0 97 be
       -0.21018952 -0.5234554 0.09875516 -0.29626527
000120 a3 c0 ec be a5 3a 02 3f 52 cd 14 3e 3f 16 cf be
       -0.4624072 0.50870734 0.14531448 -0.4044666
000130 3a 6d 1c 3e 77 16 7e be 29 2d 2b bf 5e a6 b6 be
       0.15276042 -0.24813257 -0.66865784 -0.35673803
000140 9f 3f 10 3f 1d d2 a4 be d5 12 97 bd 0e 18 be bc
       0.5634708 -0.32191554 -0.07376639 -0.02320483
000150 10 22 01 3f 91 f8 ae bd 46 b4 10 bf db 71 d5 3d
       0.504426 -0.08543504 -0.56525075 0.10422107
000160 9b 0f e6 bd 93 72 5c 3e 30 da 96 be 6d 16 f3 3e
       -0.11233445 0.21528082 -0.2946334 0.47478047
000170 6b 78 e9 3e fa ec 01 3b 10 77 0b bf 19 2e 9b 3d
       0.45599684 0.0019825087 -0.5447855 0.07577152

encoder.conv1.lin_l.bias f4 [32]
000000 52 35 7b be 37 aa e3 3e 23 7c 4f be be 8d 71 3e
       -0.24532059 0.444658 -0.20262198 0.23589227
000010 2a 48 98 be 40 4b cf 3e 74 19 c9 bd a9 eb 35 3d
       -0.29742557 0.404871 -0.09819308 0.044414196
000020 11 0e 93 3e b8 0e 13 3f 4a dd a4 3d 8c 21 ed be
       0.2872167 0.57444334 0.0805002 -0.46314657
000030 df 9e d2 3c 32 ed eb 3d ea 66 76 3d c6 7f 02 3f
       0.025710521 0.11519851 0.06015674 0.50976217
000040 21 5d 9e 3e fe 05 83 be a9 ab 3b 3c 78 ed a8 be
       0.30930427 -0.2559051 0.011454501 -0.32993674
000050 fb d5 76 be 3e 94 be be c3 f1 92 be 5d 07 1d bf
       -0.24105065 -0.37222475 -0.28700075 -0.6133936
000060 62 3d 0d 3f f0 1a 46 be 03 05 33 bf 33 d1 fa bd
       0.5517179 -0.19346213 -0.6992952 -0.12246933
000070 3d 41 c7 be 9b e3 17 3f 3d 09 04 bf 80 b4 b6 be
       -0.3891696 0.59331673 -0.51576596 -0.35684586

encoder.conv1.lin_r.weight f4 [32, 3]
000000 13 e8 9e 3d f8 e2 6c 3e fb 55 5e 3e d7 14 8b 3b
       0.077591084 0.23133457 0.21712486 0.0042444277
000010 af c6 b4 be 05 86 cf 3e ff ec 38 be d2 01 ec 3e
       -0.35307834 0.40531936 -0.18059157 0.4609514
000020 37 41 df 3e 3b 24 d9 be 27 41 06 bf 19 82 a3 be
       0.43604442 -0.42410454 -0.52443165 -0.31935194
000030 db d7 f5 3d 20 31 ca 3e 74 b4 eb be d9 b0 1c be
       0.12004062 0.39490604 -0.46036112 -0.15301837
000040 10 3e cb 3e eb 27 14 bf d9 0a 0d be e1 b4 2d bd
       0.39695787 -0.5787341 -0.1377367 -0.042408828
000050 a4 7e be be ea 3d ff be 57 55 89 3e d2 de 67 bd
       -0.37205994 -0.49851924 0.26822922 -0.056608982
000060 9a ad 01 bf 20 8e 03 be 7a 8a 68 3e a8 b0 98 be
       -0.5065552 -0.12847185 0.22709075 -0.29822278
000070 d1 91 ed bd 00 9b 02 3f cf 05 34 3b 1c be db be
       -0.11600078 0.5101776 0.0027469283 -0.4291848
000080 5e 8c 20 3e 49 bd 1f 3e 3e 6d 05 3f 00 09 05 3f
       0.15678546 0.1559955 0.52119815 0.5196686
000090 d0 46 77 be 90 a4 00 bd bd 3b 35 3e 5e 3f 0f bf
       -0.24148107 -0.03140694 0.1769857 -0.55956066
0000a0 a1 7b ac 3e 95 42 d9 be 8f 20 46 3e 14 a4 76 3e
       0.3368807 -0.4243361 0.19348358 0.24086028
0000b0 1a d8 1e 3d a5 dc 0f bf b0 19 c3 be d9 ee 6b be
       0.03878031 -0.5619605 -0.38105536 -0.23040332
0000c0 ee eb 8f be 9f 28 c9 3b 45 b2 8c 3e 1c f5 00 be
       -0.28109688 0.0061388756 0.2747976 -0.12593502
0000d0 d2 4b dc 3e 8e 8d 98 3c bc 08 13 be 7c 3f cc be
       0.43026596 0.018622186 -0.143588 -0.39892185
0000e0 fc fe 73 3e 6e 05 d3 3d 9c 03 ef be 84 28 d5 3e
       0.23827738 0.1030377 -0.4668244 0.41632473
0000f0 a5 64 3a 3c 3f da c3 be 71 7c 9c 3e 4a 84 3a 3d
       0.011376535 -0.38252446 0.3056369 0.045536317
000100 03 72 35 bd d1 d9 e5 be 61 b1 74 3e a6 34 a8 3e
       -0.044298183 -0.44892743 0.2389579 0.32852668
000110 36 f1 8f be af 83 37 bd f2 d8 50 3e e5 cf 0b 3f
       -0.28113717 -0.044803318 0.20395258 0.54614097
000120 0a 3e 86 3d 75 47 7e be 68 95 77 3e 5b 62 b0 bd
       0.06554802 -0.24831946 0.24178088 -0.0861251
000130 6d 57 2c be f4 4b 43 be 65 0b 8b be d4 c6 6b 3e
       -0.16830225 -0.19071943 -0.2715713 0.23025066
000140 6e 32 b0 bd 4e 24 23 be 41 08 9a 3e 8e 84 8c bd
       -0.08603369 -0.15931818 0.30084422 -0.0686122
000150 1b 9e e5 be cb 13 4b be c6 ce cd be 4e 30 e3 be
       -0.44847187 -0.19831769 -0.40196818 -0.4437279
000160 14 3d ac 3e 13 43 1f be aa 92 ec 3d ef ae 1d 3b
       0.3364035 -0.1555293 0.115514114 0.0024060567
000170 09 fc 3a be 71 d3 5a 3d 61 79 bf 3e 73 73 9e 3e
       -0.18260206 0.053424302 0.37397292 0.30947456

encoder.conv2.lin_l.weight f4 [16, 32]
000000 8a 1b 22 3e fa 28 b6 3d 15 0a 97 bd 1b f2 33 3e
       0.15830818 0.088945344 -0.0737497 0.17572825
000010 5b 36 05 be ef f0 0c be 6b 5b 2f 3c 46 06 9d 3e
       -0.13009016 -0.13763784 0.010702948 0.3066885
000020 7c ef c2 bd 42 c1 df bd c4 a3 25 bd 67 50 2b 3e
       -0.09518334 -0.10925533 -0.040439382 0.1672989
000030 0e 60 dd bd 74 91 f5 bd 0c 6e db bd 52 1f 18 be
       -0.108093366 -0.119906336 -0.10714349 -0.14855698
000040 04 7c 9c bd 74 55 2b 3e bd dc 99 3d d3 d2 ce 3b
       -0.076408416 0.16731817 0.075128056 0.0063117533
000050 28 1f 00 3e dd 7e a7 ba 51 22 fc bd 54 84 92 bb
       0.12511885 -0.0012778897 -0.12311233 -0.004471341
000060 aa c3 2b 3e 98 87 21 3e 58 a4 8c bc c0 44 17 3e
       0.16773859 0.15774381 -0.017168209 0.1477232
000070 19 b1 d0 3c 8d 17 e4 3d 46 5d 20 bd 72 ec 0d be
       0.025475072 0.111373045 -0.039151452 -0.13859728
000080 40 66 f2 bd 69 50 80 bd d6 7e bd bc f0 e6 9f 3d
       -0.11835909 -0.06265337 -0.02313177 0.0780772
000090 c7 04 ca 3c 48 a9 fa 3c cb cf 12 3e b1 f2 e1 bc
       0.024660481 0.030598298 0.14337079 -0.027581545
0000a0 00 c7 ae 3c 72 0e 7c 3c 01 21 60 3d b6 98 e6 3d
       0.021335125 0.015384303 0.054718975 0.11259596
0000b0 da ae 57 3d 81 68 9c bd 18 9b d4 3d 55 7f 19 3e
       0.052656986 -0.0763712 0.10381144 0.1498998
0000c0 ae dd 7a bd b5 4f 4c bc 9d 2f 01 be 7e 05 09 3e
       -0.061246566 -0.0124701755 -0.1261582 0.13381001
0000d0 cc 57 52 3e 40 14 5f 3c 3e b9 e8 3d 74 e8 2f 3e
       0.20541304 0.013615668 0.11363457 0.17178518
0000e0 8a 8f 89 3c 8a 14 9a 3e 1b e2 d2 bb 68 5f ab bd
       0.016792078 0.30093795 -0.0064356453 -0.08367807
0000f0 f7 2c bc bd 1f 58 fa 3d c1 43 04 bc 4c cc 81 bc
       -0.09188264 0.12223839 -0.008072794 -0.015844487
000100 7f 5c b3 bc a7 27 8b bd b9 43 9c bd 93 d4 b5 3d
       -0.021894692 -0.067946725 -0.076301046 0.08878436
000110 f7 2a 35 3e ea e6 01 3d 14 e2 02 be 11 aa 47 3c
       0.17692171 0.031714357 -0.12781554 0.012186543
000120 e7 5b b5 3d 22 e9 a8 3b 4f c2 29 bd ee 02 15 be
       0.088554196 0.0051547447 -0.041445073 -0.14551899
000130 65 0d df bd e1 e9 b4 3c 14 86 62 3d 46 0b 8e bc
       -0.10891227 0.022084178 0.055303648 -0.01733936
000140 4c 76 45 bd 8f 54 3f bd a3 c3 88 3d ea a6 1e be
       -0.04820852 -0.0467115 0.0667794 -0.1549336
000150 ff 97 e9 bd a8 b7 af 3d d2 62 23 3e 6a df 1a be
       -0.11405944 0.085799515 0.15955666 -0.15124288
000160 a2 ac cf bd 5b 80 61 bd 15 1e 3b be 10 a1 36 3d
       -0.10140349 -0.05505405 -0.18273194 0.044587195
000170 6b 24 9b 3b a4 a4 c4 3d 77 f0 4d be 5e 9a 5d bd
       0.004734566 0.09601715 -0.20111261 -0.054102294
000180 21 34 2b 3d a3 c9 43 be 6d 4a 62 3d 82 de 5c bd
       0.04179776 -0.19119887 0.05524676 -0.053923137
000190 74 00 92 3d 1d 09 ec bd c3 38 a6 3d 68 1d 27 be
       0.07128993 -0.11525176 0.08116295 -0.16319811
0001a0 28 d8 19 be 4c ed c9 bb 11 82 78 be 66 a9 5a bd
       -0.15023863 -0.006162321 -0.24268366 -0.053384207
0001b0 fa 90 0e be 78 49 c9 3c 7d 18 ef bd 68 28 04 3d
       -0.13922492 0.024571165 -0.11674593 0.032265097
0001c0 20 26 c3 3d 1d 53 1b 3d 6a 5c 89 3d 28 e6 20 be
       0.09528756 0.03792106 0.0670708 -0.15712798
0001d0 84 df 42 be ed 3b f9 bd 8d 2d 9b bd 0a 28 85 3d
       -0.19030577 -0.12169633 -0.075770475 0.065017775
0001e0 f3 ec 6d 3d 74 0c b6 3d fa ad 65 be 5f 3a 5f 3d
       0.0580873 0.08889094 -0.22429648 0.054499026
0001f0 8a c0 44 3d 89 55 3d bd 68 9f e6 3d 8b 5e 40 3c
       0.048035182 -0.04622415 0.11260873 0.011741291
000200 1e 5c 25 3c f5 ab e4 bd de 08 a9 bd 51 45 4a 3d
       0.010092763 -0.11165611 -0.082536444 0.04938251
000210 39 d5 bf 3b 9e 24 18 3e 68 f0 c5 bc f7 ff cc 3e
       0.0058542755 0.14857718 -0.024162486 0.40039036
000220 84 b0 62 3d df 94 0b 3e 85 5a 70 bd a3 ef 26 3d
       0.05534412 0.13631009 -0.058680076 0.04075588
000230 e9 ea 98 3d 90 56 34 bd c7 d4 5e 3d 8f 44 2b be
       0.074666806 -0.044027865 0.05440214 -0.16725372
000240 05 9c cf bd db 17 c1 3d 13 aa ef bd a0 b6 55 be
       -0.1013718 0.09428378 -0.11702361 -0.20870447
000250 09 29 79 3d 15 e5 3b be 99 09 30 3e 8a 42 13 3d
       0.06083015 -0.18349107 0.17191161 0.03595213
000260 64 13 18 bd 68 41 2d 3e b9 8d 3f 3c 0c 5e 0c be
       -0.037127867 0.16919482 0.011691504 -0.13707751
000270 03 c9 0f be 07 83 ad 3d 19 1f 6e be 03 8d ab bc
       -0.14041524 0.08472257 -0.2325405 -0.020941263
000280 2d f7 61 3d ab 56 f0 bd e7 9b 4b 3d 50 02 8b 3d
       0.055167366 -0.117352806 0.049709227 0.067875504
000290 f2 58 ca bd 98 e5 e3 3d 33 2f e3 3c 4d dd 90 bd
       -0.09880246 0.11127776 0.027732467 -0.0707346
0002a0 f3 f8 08 be 19 17 b0 3d c1 a4 7c 3d db ec 1a bd
       -0.13376217 0.085981555 0.06168056 -0.03782354
0002b0 d4 73 23 be 65 fa 90 3d 36 60 3d bd ba 4d 37 bb
       -0.15962154 0.07079009 -0.046234332 -0.0027969913
0002c0 3d de 0d bd 3b 31 d8 bd 9e e4 8d bd 7c f7 47 be
       -0.03463577 -0.10556265 -0.06928371 -0.19528002
0002d0 04 18 4b 3b 7c bf 0e be d4 e1 29 be 6b 2b 6a 3c
       0.0030989656 -0.13940233 -0.16590053 0.014292578
0002e0 39 e2 cd bd bc 73 7d be 25 66 4f be d7 bd 18 b9
       -0.10052914 -0.2475118 -0.20253809 -0.0001456657
0002f0 63 f5 0f 3d 59 15 5a be c2 1c 45 be 83 d2 48 be
       0.03514613 -0.21297206 -0.19249251 -0.19611554
000300 3c ab 12 be f7 6e 17 bd ff f0 2a bd 10 5d 48 bc
       -0.14323133 -0.03697106 -0.041733738 -0.012229219
000310 95 58 66 3d 10 36 33 bd 6c da 04 be a2 c7 62 be
       0.056236822 -0.04375273 -0.12973946 -0.22146466
000320 e7 ee 80 3d 5d 17 c9 bc 2d ba 05 be 75 0c ac bc
       0.06295567 -0.024547273 -0.13059302 -0.021002034
000330 e3 27 67 be 63 0a 3c be a9 3a 23 be 9f b0 ad bd
       -0.2257381 -0.18363337 -0.15940346 -0.084809534
000340 df 82 bb bd c6 59 29 be ae 2f e7 bd 0d 2a 39 be
       -0.09155821 -0.16538152 -0.11288391 -0.18082447
000350 7e 2f d3 bd 0b 35 7f 3d ed a9 20 3d ad eb b0 3d
       -0.10311793 0.062306445 0.039224554 0.086387016
000360 4e ba 90 bb 86 be 9f bc 2d 46 26 be e2 14 d8 3c
       -0.0044167405 -0.019500028 -0.16237707 0.026377145
000370 a8 54 08 3e bf b1 2a be fc 4f 1a be 69 1f 15 be
       0.13313544 -0.16669367 -0.15069574 -0.14562763
000380 6a 23 17 be e7 39 bb 3b 47 a7 6e bd 5e 9e 8f 3d
       -0.14759603 0.0057136896 -0.058264997 0.07012628
000390 47 46 74 ba 39 f3 86 3d 64 25 1d be eb dd cf bd
       -0.00093183335 0.0658936 -0.15346295 -0.10149749
0003a0 73 68 7b bd ac 9f b7 bd 3a d8 94 bd 2c aa 3f be
       -0.061378907 -0.08966002 -0.072678044 -0.18717259
0003b0 1b 5f 2d 3d ce 91 ca bd 58 1b 68 3d fc ce b9 3d
       0.042327028 -0.09891091 0.056666702 0.09072682
0003c0 0b 40 ef 3d c5 53 3f be ee cb 10 3e 4f e7 df 3c
       0.11682137 -0.186843 0.14140293 0.027331976
0003d0 fa 9e a8 bc 8d fe 29 3c b2 73 72 bc 86 4f ec bd
       -0.020583618 0.010375631 -0.014798092 -0.115386054
0003e0 b2 78 48 3b a4 85 ad 3d e0 48 11 be 6f 7a 55 3c
       0.0030589518 0.084727556 -0.14187956 0.013029679
0003f0 67 e1 dd 3d 06 0e 2f be da ab df bd e2 e3 be bb
       0.10834008 -0.17095193 -0.1092145 -0.0058255056

encoder.conv2.lin_l.bias f4 [16]
000000 ff cd aa 3d b4 27 73 3d f4 48 03 3e f8 de 97 be
       0.08340072 0.059364036 0.12820798 -0.296623
000010 d2 4f 6d 3e 05 69 e5 3d a9 ef dc bd e6 f3 02 3d
       0.2317498 0.112016715 -0.10787899 0.03197088
000020 7f f0 50 3d 5c 99 4f 3d 98 9a be 3c 20 ae 21 b9
       0.051010605 0.050683364 0.023267075 -0.00015419023
000030 7c 4e 54 3c f5 5f 17 bd 77 92 ae bb 62 3a 37 3e
       0.012958165 -0.036956746 -0.0053275186 0.17893365

encoder.conv2.lin_r.weight f4 [16, 32]
000000 90 91 ff 3d ef 97 c8 3d 53 07 0a 3d 62 bd f1 bd
       0.12478936 0.09794604 0.03369839 -0.118037
000010 0c 1d 9a 3d 1e 14 06 bd 84 86 95 bd d7 ce c9 bd
       0.075250715 -0.03273403 -0.073010474 -0.09853905
000020 aa aa 69 3d 1e d1 20 3e 14 a6 b8 3d 77 81 25 3e
       0.057047524 0.15704772 0.09016052 0.16162668
000030 56 ca 16 3d 35 f2 ad bc 8f d5 4b bd c6 c8 87 bd
       0.036814056 -0.021233657 -0.049764212 -0.06630091
000040 6f 52 04 be af 82 c4 bc 58 18 6a 3b cd c5 e6 ba
       -0.12922071 -0.023988096 0.0035720076 -0.0017606557
000050 78 aa 22 3e c5 e4 d2 3b 3f 36 f2 bd 9d eb c6 3d
       0.15885341 0.006435963 -0.11826753 0.097129084
000060 a9 cc cf 3c b8 23 38 bd 12 8f f2 bd 3e 2c 94 bd
       0.025366144 -0.04495594 -0.11843695 -0.07235001
000070 47 58 b9 3d b7 6f 8b 3c 64 37 2a bd a4 3b 0b bd
       0.09050041 0.017021043 -0.04155673 -0.033992425
000080 f5 b1 cd 3d 47 3a 36 3e b9 1a 25 3e 67 e7 a2 3d
       0.10043708 0.17795669 0.16123475 0.07954293
000090 24 d4 2b 3e c0 42 fd 3d 1b b3 e4 3c 4d 91 32 be
       0.16780144 0.12366247 0.027917435 -0.1743824
0000a0 5d 36 3b 3e ae 21 90 3d 3c 6e 7e 3c 7e 3e 19 3d
       0.18282457 0.07037674 0.015529212 0.037413113
0000b0 30 7f 20 3e 4b 31 fe 3d be 1d ab 3d 21 30 a8 3d
       0.15673518 0.12411746 0.08355282 0.08212305
0000c0 58 f8 cd 3b 1f 79 57 bc 5b ad 3e 3e 8f 02 85 3d
       0.0062857084 -0.013151436 0.18620817 0.06494629
0000d0 14 76 ce 3d 14 b6 c9 bd 9b 01 6e 3d b3 be d5 3d
       0.10081115 -0.09849182 0.058107 0.104367636
0000e0 75 cc 61 3d 7d 01 c1 bd 02 0b 6a 3d 1d d5 fc 3b
       0.055126626 -0.09424112 0.057139404 0.007715835
0000f0 3a 26 7d 3d 17 09 90 3d 7c e0 28 3c 3c ae 20 bb
       0.061804034 0.07032984 0.0103074275 -0.0024517914
000100 9b a9 3a bd 8f f6 f9 3c f8 7d 18 be 89 db 9f bc
       -0.045571905 0.030513076 -0.14891803 -0.019513862
000110 d0 e7 84 ba 38 44 02 3d 7d 41 db bd 7a a7 36 3e
       -0.0010139886 0.03180334 -0.1070585 0.17837325
000120 6d 79 11 3d 96 f9 22 be 73 b4 82 bd 49 14 64 bc
       0.03551619 -0.15915522 -0.06382074 -0.013920852
000130 27 2c 3a be c0 d9 1a 3e fe a4 49 bd b5 57 33 be
       -0.18180905 0.15122128 -0.049229614 -0.17513926
000140 36 6a c5 3c da 7b d4 bd dd 72 ed 3d c0 b5 1b 3e
       0.024098497 -0.10375185 0.11594174 0.15206051
000150 86 5b 98 bd f7 00 d2 bd c2 4f dc 3d cb 47 54 be
       -0.07439332 -0.1025409 0.107574 -0.20730512
000160 d5 48 1e bd 5d ba d9 3d b4 c4 88 bd a5 bb 2f be
       -0.038643677 0.10631249 -0.06678143 -0.17161424
000170 40 6f 04 3d 8a 61 50 be ca 1d 10 3e ea 44 9b ba
       0.03233266 -0.20349708 0.14073864 -0.00118461
000180 e5 23 20 bc f0 c7 08 bd 52 1b 3f bc 37 f1 0f be
       -0.009774183 -0.0333938 -0.0116642285 -0.1405686
000190 cb bf 4a bd 96 8c 0c be 31 72 2f be c0 9d 27 be
       -0.049499314 -0.13725504 -0.17133404 -0.1636877
0001a0 64 ed e2 3d 8e 11 b5 bd 96 da 83 bd d6 70 6f be
       0.11080435 -0.08841239 -0.06438176 -0.23382887
0001b0 1f 5e 99 bd 80 ae cc 3d f7 94 fd bd c1 00 ed bd
       -0.07488655 0.09994221 -0.123819284 -0.115724094
0001c0 42 20 b9 39 82 bf a7 3d 09 48 6b 3b a4 ed 14 bd
       0.00035309984 0.08190824 0.003590109 -0.036359444
0001d0 4e cd 67 3d 35 5c d7 bd 02 1f 95 bd 5f 62 b1 3d
       0.05659228 -0.10515634 -0.07281305 0.08661341
0001e0 b8 2b 98 bd c5 ae b9 3c 5b bc 22 be d3 4b bc 3d
       -0.07430214 0.022666344 -0.15892164 0.0919415
0001f0 11 a3 3f bc 60 69 3b bc 79 08 3f be de 01 11 be
       -0.011696593 -0.011438698 -0.18655576 -0.14160869
000200 aa 41 0c bd b1 9b 09 3e d4 fa a8 bd 7b c7 dd bd
       -0.03424231 0.13438298 -0.08250967 -0.108290635
000210 2d 41 ba 3d 28 e4 f4 bd 63 d6 14 3d c4 aa 52 3e
       0.090944625 -0.1195758 0.036337268 0.20572954
000220 b6 85 78 3d 5f 5e 8e 3d 8e 8c ae bc 58 9f 0e be
       0.06067439 0.069515936 -0.021307256 -0.13927972
000230 eb 3f 91 bd 61 d3 9f 3c 32 24 89 bd c1 51 cf 3c
       -0.070922695 0.019509973 -0.06696357 0.025307538
000240 68 62 7b 3d 96 a9 a9 bc 6c f4 0e 3d 8d aa da bd
       0.061373144 -0.020710748 0.034901068 -0.10677061
000250 59 85 6c bb ca bb 72 3c 8c 0f 37 be 50 c2 29 be
       -0.0036090224 0.01481528 -0.17877024 -0.1657803
000260 b8 ae 02 be ee bb 57 3e 6c 30 a0 3d fa fb f7 bd
       -0.12761962 0.21067783 0.07821736 -0.121086076
000270 d4 dc 15 bd 3d a3 a9 3d c1 5c c5 3d d1 2f 80 3b
       -0.03658755 0.08283088 0.09636832 0.00391195
000280 80 fa c7 bd 20 f0 95 bd 85 d0 ba bc 1d a2 a3 bc
       -0.09764576 -0.07321191 -0.022804508 -0.019974763
000290 3d 7a ad bd 12 bc f7 bd 22 71 a9 bd 50 95 d6 3b
       -0.08470581 -0.120964184 -0.082735315 0.006548561
0002a0 65 b3 9e bd 8d cc 44 bd 93 83 2a be 9d 27 a0 3d
       -0.077490605 -0.048046637 -0.16651754 0.07820056
0002b0 13 da 51 be d7 b4 2e be e7 0a 9d bd 7b 78 f5 3d
       -0.20493345 -0.17061172 -0.07668095 0.119858705
0002c0 1d 1a e9 3c f3 b0 56 3b 9c 63 d1 3c 2a c7 23 be
       0.028454835 0.0032759279 0.025560193 -0.15993944
0002d0 8d f3 d3 bc d4 14 0c be 88 4c d4 3d 4e 44 15 bd
       -0.02587297 -0.1367982 0.1036616 -0.036442094
0002e0 f1 21 9a 3d d3 71 15 be 5e 2f a5 bd 7f fe 27 bd
       0.07526005 -0.14594202 -0.08065675 -0.04101419
0002f0 6b 0c 13 3d d6 61 2b 3d 22 9d 2d bd 10 4b 53 3d
       0.035900515 0.04184135 -0.04238618 0.051585257
000300 86 39 a1 bd 41 14 aa bc 4c 00 fe bc 16 06 13 be
       -0.078723 -0.020761611 -0.031006001 -0.1435779
000310 3a ea 90 3b 82 45 ef bd 6b fd fb bd 4b ab 05 be
       0.004422453 -0.116831794 -0.12304195 -0.13053624
000320 92 ed 98 3d 22 15 8d 3d 92 25 a8 bd c2 2c 38 bd
       0.07467188 0.068887964 -0.08210291 -0.04496456
000330 67 15 87 bd 21 66 0a be 5d 52 4f be fa e5 99 3d
       -0.06595879 -0.13515522 -0.20246263 0.07514568
000340 b2 52 da bd 11 2e 34 3d 3f 57 48 3d 43 12 97 bd
       -0.10660304 0.043989245 0.04891133 -0.0737653
000350 67 6d ca 3d ae 5d ca 3d e9 58 f2 3b ef 35 dc 3d
       0.09884148 0.09881149 0.007395853 0.107524745
000360 9f ba ff 3b e0 b3 81 3d c4 49 05 3d 65 80 7d bd
       0.0078042294 0.063331366 0.03254105 -0.061890025
000370 54 b3 d9 3d f9 88 0f 3d 42 ea fc 3d bb 21 2b be
       0.10629907 0.035042737 0.12349369 -0.16712086
000380 51 52 04 be 9f c4 36 be cc f9 f8 bd a0 bf dd 3d
       -0.12922026 -0.17848442 -0.1215702 0.10827565
000390 4c 53 b1 3b 04 3a 16 3e a7 bc 1c 3d 87 b5 70 3d
       0.005411541 0.14670569 0.03826585 0.058766868
0003a0 6d 44 58 be dd 1d 79 bd 2b 3f f3 bc 7d 06 c3 3c
       -0.21119852 -0.060819495 -0.029693207 0.023806805
0003b0 55 2a bc 3d 87 45 b3 3d 07 52 70 bc 17 ec da bc
       0.09187762 0.08753496 -0.014667994 -0.026723905
0003c0 b2 0e bc 3c ef 1a 36 be 5f 2a 8d 3d c3 44 b5 3c
       0.022956226 -0.17783712 0.06892847 0.022127515
0003d0 06 39 40 3d c7 7f bd bd c9 81 f0 3d 93 c4 a2 bd
       0.04692938 -0.09252887 0.117435046 -0.0794765
0003e0 7d 3a af bd 26 c2 1b bd dc c4 09 be be 04 d4 bd
       -0.08556078 -0.03802695 -0.13454002 -0.10352467
0003f0 30 ea 2c 3d 2e 6b 0c be 0c 41 4f bd 84 77 05 3e
       0.042215526 -0.13712761 -0.050599143 0.13033873

decoder.lin1.weight f4 [8, 32]
000000 5d 21 1e be 6d 31 d1 3d f7 55 b3 3c 63 41 b5 bd
       -0.15442415 0.10214505 0.021891577 -0.08850362
000010 0a 79 71 3d 66 89 18 3e 09 be df bd 44 54 3a 3d
       0.058953322 0.14896163 -0.10924918 0.04549052
000020 91 4c 98 3d 10 4d 37 3e 3c 96 eb 3b b5 54 05 be
       0.07436479 0.17900491 0.00718954 -0.13020594
000030 83 ef ac 3d d2 37 f0 bd 5f 6f 13 be 64 74 82 3d
       0.08444121 -0.11729397 -0.14397953 0.06369856
000040 c0 47 9d 3d 5e ee 3d ba d4 5e 73 bd 12 62 11 3e
       0.07679701 -0.00072452973 -0.059416607 0.14197567
000050 4c c2 41 be 2d d6 af 3d 32 a9 ab 3d 4d fe 42 bd
       -0.18921775 0.08585773 0.08381881 -0.0476058
000060 fd bd 2e 3c 59 d0 dd 3b 33 58 31 be b9 e6 8d bc
       0.010665414 0.0067692217 -0.17318802 -0.017321931
000070 1d 5c 44 be 3b 75 44 be 76 40 05 be 00 ce b1 bd
       -0.19175763 -0.19185345 -0.13012871 -0.086818695
000080 04 31 6a 3d 47 8e ed bc 19 89 61 3e ba 49 11 bd
       0.05717565 -0.028998507 0.22024955 -0.0354707
000090 3a c8 c2 bd 9a 18 26 bd e5 1c 3b 3e 3f 4e 37 bb
       -0.095108464 -0.040550806 0.18272741 -0.0027970222
0000a0 5b 08 46 be 3d c1 15 bd db ca 99 bd 62 13 e5 bd
       -0.19339125 -0.03656124 -0.07509395 -0.111853376
0000b0 57 a6 42 bd 7d 39 07 be 2c 75 1c bd dc a7 cc b9
       -0.047521915 -0.13205524 -0.03819768 -0.00039034977
0000c0 43 4d a0 3d f8 be ac bd 97 4b 04 3e b2 bf 0a 3e
       0.078272365 -0.08434862 0.1291946 0.13549688
0000d0 f0 ff 2c 3c c0 04 0c bd 5c d9 3e 3e 64 7d 30 3e
       0.010559067 -0.034184217 0.18637604 0.17235333
0000e0 ca 0d e9 3d 4b 53 19 3e f5 69 d5 bd e1 bc cd bd
       0.11379583 0.1497318 -0.104206 -0.100457914
0000f0 db ce b3 bd f9 31 f9 bd 7f 9e 13 3c 28 11 ee bd
       -0.08779689 -0.12167735 0.009009956 -0.11624366
000100 90 9a 0f be fc 9a 28 3d 51 d8 33 be 4a 2a 1e be
       -0.14023805 0.04116343 -0.17562987 -0.1544582
000110 af c0 c6 3d 2d 00 0e 3e 45 3b 5a bd 0c 7c 1e 3e
       0.0970472 0.13867255 -0.05327918 0.15477008
000120 18 14 06 be dc c9 c5 bd 74 6b 37 bb 12 52 0e bd
       -0.13093603 -0.09657642 -0.002798763 -0.034746237
000130 3f d9 2b 3d bd 18 19 3b 04 bd 41 3d 58 78 ba 3d
       0.04195523 0.0023360692 0.0472994 0.09104985
000140 b3 86 c8 3d 75 f4 3a be c3 bb 96 3d 2f f5 14 3e
       0.09791317 -0.18257315 0.073600315 0.14546655
000150 a1 6d af 3d 0a 41 19 3e a0 89 ab bd af f3 b0 bc
       0.08565832 0.14966217 -0.08375859 -0.021600572
000160 3b a6 89 3d 56 84 41 3e 6e 5b 17 be 53 cf 5b be
       0.06721159 0.18898138 -0.14780971 -0.21465807
000170 ab 77 17 bb be 04 34 3e ad c9 59 3d c4 0f 9f bb
       -0.00231121 0.17579934 0.05317085 -0.0048541743
000180 a5 89 c3 3c 5d fb 8f bd 32 ed 24 3d 9c 9a 9c bc
       0.023869345 -0.070303656 0.04026527 -0.019116692
000190 f0 58 f5 bd f1 08 33 3e a6 5f 0b be af 01 81 3d
       -0.11979854 0.1748388 -0.13610706 0.06299149
0001a0 8b a8 16 bc f8 d9 41 3e 46 0b c0 bd b4 e4 a0 bd
       -0.009195457 0.18930805 -0.0937715 -0.07856122
0001b0 2c d8 8e 3d df 6b 11 be 55 c0 67 bd e0 dc 22 3e
       0.06974825 -0.14201306 -0.056579906 0.1590457
0001c0 44 65 bf bd 4f 55 af bd 9d 04 c8 bd 09 18 be bd
       -0.09345487 -0.08561193 -0.09766505 -0.09281928
0001d0 f9 e4 87 3d 27 69 c6 bc e3 12 5e 3d c5 c4 41 bd
       0.0663547 -0.024220062 0.05421723 -0.047306795
0001e0 e4 38 08 be a5 a1 44 3e 2b 22 6a bd 5f d8 e7 bd
       -0.13302952 0.19202287 -0.05716149 -0.113205664
0001f0 d0 3e 97 3d b7 84 ad bc 43 dd a6 3c 50 94 5b bd
       0.073850274 -0.021181447 0.020369178 -0.05360824
000200 e4 4c 18 bd 91 75 d5 bd 15 f3 8e bd 99 8c 10 3e
       -0.037182704 -0.10422815 -0.06979958 0.14116134
000210 04 e4 05 3e 13 fb 06 3e f2 a9 7e bd 1c df 34 3e
       0.13075262 0.13181715 -0.06217379 0.17663234
000220 2c fb 30 bd 07 e1 dc bd 83 63 99 3c f5 77 8b ba
       -0.043208286 -0.10785108 0.018724209 -0.0010640608
000230 ff 44 17 be 78 30 21 bd 0f 6f 01 be b4 4f 68 bd
       -0.14772414 -0.039352864 -0.12640022 -0.056716636
000240 67 57 00 bd 3d d0 f7 3d 1f 67 71 bd 90 a5 e6 3d
       -0.031333353 0.12100265 -0.058936235 0.11262047
000250 89 ea e6 bd 06 6a bd bd d7 a2 48 3d a3 a7 2f 3e
       -0.11275203 -0.09248738 0.04898342 0.17153792
000260 dc e8 84 3d 0d 89 be 3d 94 cf 82 bd d2 09 d4 3d
       0.06489727 0.09303484 -0.06387249 0.103534356
000270 80 4a 9d bd 68 53 02 3e 5d c4 fa bd 77 7c db 3d
       -0.07680225 0.1272713 -0.122444846 0.10717099
000280 e2 44 bd bd 29 64 b5 3c 61 51 42 be f3 25 ef 3d
       -0.09241654 0.022142487 -0.18976356 0.1167716
000290 e3 2d f6 bc 03 59 bb 3c c2 df 6f bd 25 0a 68 3d
       -0.030051177 0.022869593 -0.058563 0.0566503
0002a0 88 4e c8 3d 29 f3 b6 bc 88 99 62 be 03 95 78 bd
       0.09780604 -0.022332745 -0.2212888 -0.060688984
0002b0 ce f1 33 be 4c df 21 3d 92 16 21 be 62 f5 3c 3d
       -0.1757271 0.039519593 -0.15731266 0.046132453
0002c0 09 20 bb bd 4b ba 50 be f8 16 d4 bd b8 e9 3f 3c
       -0.091369696 -0.20383565 -0.103559434 0.011713438
0002d0 ae e6 ef 3b 4b cc 8d 3d 93 ce 22 bd d2 fb 6a bc
       0.0073212003 0.069237314 -0.039747786 -0.014342265
0002e0 cb 76 fb bc 3b fe 4d bd e4 b8 02 bd ee c1 1f be
       -0.030696293 -0.05029128 -0.031914607 -0.15601322
0002f0 48 31 b1 bd 26 61 ea bd 18 8d 16 bd ae 81 80 bd
       -0.08651978 -0.11444311 -0.03675565 -0.062747344
000300 41 ce 13 be f0 98 08 be 40 8d 55 3d d1 39 87 bc
       -0.14434148 -0.13339591 0.05213666 -0.016507061
000310 33 31 82 bd 1e 3e 21 3e c5 9d 90 3d 76 92 22 be
       -0.0635704 0.15746352 0.07061342 -0.15876183
000320 dd be 0d be e3 30 47 be a9 9d f3 bd c0 42 63 be
       -0.1384234 -0.19452243 -0.11895306 -0.22193432
000330 e0 57 51 be 96 5d 70 3d 7e 74 89 3d 61 f6 b4 3d
       -0.20443678 0.058683 0.06711672 0.088360555
000340 23 e4 e0 3d c5 25 5c 3b 2d c4 08 3c 18 cd b3 bd
       0.109810136 0.0033591848 0.008347553 -0.08779353
000350 92 bc c8 3d 23 fb 0c be be e8 57 3e 88 b1 94 bd
       0.09801592 -0.13767676 0.21084878 -0.07260424
000360 8b 32 1d 3c 72 17 11 3e 95 94 14 3e 74 5b c3 bd
       0.00959457 0.141691 0.14509805 -0.09538928
000370 02 7e 7b bd e6 c6 81 bd 29 6d 68 be 10 0f a8 3c
       -0.061399467 -0.06336765 -0.22697891 0.020514995
000380 95 ee 1d 3d 62 71 ec bd 37 e7 3f 3e 97 0b a6 3d
       0.038557608 -0.115450636 0.18740545 0.08107679
000390 aa 2e 12 3e af a2 06 3e a2 c8 2d 3e ea 6b 84 3e
       0.14275613 0.13147996 0.16971067 0.25863582
0003a0 28 62 d2 3d b0 03 57 3e 74 b9 f7 bd b1 69 38 be
       0.10272628 0.209975 -0.12095919 -0.18009068
0003b0 9e a0 42 3d b5 f0 22 3c 0c 27 b4 bb f9 2d 05 3e
       0.047516458 0.009945084 -0.005497819 0.13005818
0003c0 d9 f9 44 be e5 5c 9a bd 3c 79 b6 bc e0 d0 07 bd
       -0.19235934 -0.075372495 -0.022274606 -0.033158183
0003d0 8b d2 c4 bd 7c 3e eb bd 72 41 e8 3a 97 35 7c bd
       -0.096104704 -0.11486527 0.00177197 -0.061574545
0003e0 31 20 56 3b 4f cd 05 be f1 61 07 be f1 76 c6 3d
       0.0032672996 -0.130666 -0.13220955 0.09690655
0003f0 78 f1 df bd c7 84 72 3d a8 d5 2f 3d b0 f7 17 3d
       -0.109347284 0.059208658 0.042928368 0.037101448

decoder.lin1.bias f4 [8]
000000 bc 26 fe 3d 73 eb b4 bd 7f 93 1b bd 05 12 9f 3d
       0.12409732 -0.08833971 -0.03798246 0.07767109
000010 ca d3 1a 3d d5 f1 98 bd c7 e3 de 3c 61 e8 4b 3e
       0.037799634 -0.07468001 0.027208222 0.19912864

decoder.lin2.weight f4 [1, 8]
000000 5c 61 3a 3c 62 23 98 3e 86 5f 82 bd 61 9f 6c 3e
       0.011375751 0.29714495 -0.06365876 0.23107673
000010 23 63 cd 3d a3 4f 0d 3d c4 b7 d1 bd 74 e0 07 be
       0.100286745 0.034499776 -0.10240129 -0.13269216
