edge_gnn_model.pth (torch, 17108 bytes, 7 tensors)

encoder.conv1.bias f4 [64]
0	0xbedd93e1	-0.43276885
1	0x00000000	0.0
2	0x3ea2c273	0.31788978
3	0xbeafc145	-0.3432714
4	0x3ea892ae	0.32924408
5	0x00000000	0.0
6	0x00000000	0.0
7	0xbdedcedf	-0.11611723
8	0xbe004a68	-0.12528384
9	0x3e6afe17	0.2294849
10	0xbe14ca0e	-0.14530203
11	0xbebc0998	-0.3672607
12	0x3e90c95d	0.28278628
13	0xbeb3d272	-0.35121495
14	0x395e7944	0.00021216745
15	0x3deb0544	0.11475614
16	0x3dfa33d3	0.12216916
17	0xbe53c767	-0.20681535
18	0x00000000	0.0
19	0x3ebdd2ec	0.37074983
20	0x3ebd67fd	0.369934
21	0xbe9624d9	-0.29324988
22	0xbea9debf	-0.33177754
23	0x00000000	0.0
24	0x00000000	0.0
25	0x3ab388fb	0.001369744
26	0xbec1adb5	-0.3782784
27	0xbdd812fd	-0.10550497
28	0x00000000	0.0
29	0x3d37ca39	0.04487059
30	0xbe8cb5c5	-0.2748243
31	0xbed097a0	-0.4074068
32	0x3db62989	0.08894641
33	0x3ea00ef9	0.31261423
34	0xbdb5ba28	-0.08873397
35	0x3e34ea45	0.17667492
36	0xbeb71689	-0.3575938
37	0x3e35793a	0.17722026
38	0x00000000	0.0
39	0xbda53763	-0.08067205
40	0x00000000	0.0
41	0xbdebd8e7	-0.1151598
42	0x3eb1665d	0.3464841
43	0x00000000	0.0
44	0x3eaa10e1	0.33216003
45	0xbed7b29b	-0.42128453
46	0xbdc183cd	-0.09448967
47	0x3ebf18e1	0.3732367
48	0xbec805d0	-0.39066935
49	0xbdbeecf7	-0.09322541
50	0x00000000	0.0
51	0xbea5194b	-0.3224586
52	0xbe98ee14	-0.2986914
53	0xbe47f5b8	-0.19527328
54	0x00000000	0.0
55	0xbdc190c7	-0.09451442
56	0xbeb1029d	-0.34572306
57	0x00000000	0.0
58	0x3db8e2b5	0.09027616
59	0x00000000	0.0
60	0x3d70200c	0.058624312
61	0x3e96b99b	0.2943848
62	0xbdee103a	-0.11624189
63	0x3b178f09	0.0023126027

encoder.conv1.lin.weight f4 [64, 3]
0	0xbf27705c	-0.6540582
1	0x3e4e847b	0.20167725
2	0xbe63c782	-0.22244075
3	0xbe7919bc	-0.24326223
4	0xbe3760ff	-0.17908095
5	0xbe49ac60	-0.19694662
6	0x3e1fab6d	0.15592737
7	0xbe3c667d	-0.18398471
8	0x3d7636e0	0.060110927
9	0xbead75f1	-0.33879045
10	0xbdacfb90	-0.08446419
11	0x3e098d80	0.13432884
12	0x3e9ccfeb	0.3062738
13	0xbe5a8638	-0.21340263
14	0x3e1db01d	0.15399213
15	0x3dc4a965	0.09602622
16	0xbe6f45c2	-0.23366454
17	0xbe11e8a9	-0.14248909
18	0x3e4931d7	0.19647919
19	0xbe5775cf	-0.21041034
20	0xbce51ed2	-0.027968798
21	0xbd90dcda	-0.07073374
22	0xbd04aaa2	-0.03238929
23	0xbdf0aa77	-0.117512636
24	0xbe97aa2d	-0.2962202
25	0xbe87793b	-0.2645968
26	0x3d02f4ee	0.031971864
27	0x3e5d6253	0.21619539
28	0x3e4358ed	0.19076891
29	0x3e2621ca	0.16223827
30	0x3ba19e8c	0.0049322303
31	0x3e1cd224	0.15314537
32	0x3c1bd117	0.0095103
33	0xbe312f60	-0.17303228
34	0x3d938a4d	0.07204113
35	0x3d228f88	0.039687663
36	0x3ebd2248	0.36940217
37	0x3b3a99f2	0.0028473106
38	0x3e2073a5	0.15669115
39	0xbe1376a3	-0.14400725
40	0xbe6a2112	-0.22864178
41	0x3e5d8dce	0.21636125
42	0xbde42b59	-0.111410804
43	0xbca335dc	-0.019923143
44	0xbe97f65c	-0.29680145
45	0x3ea8f1dc	0.32997024
46	0xbe57e63d	-0.21083923
47	0xbcf6e47c	-0.030138247
48	0x3ec021de	0.3752584
49	0xbc1f58e8	-0.009725787
50	0x3d23cb3a	0.039988734
51	0xbe903e40	-0.28172493
52	0xbe909973	-0.28242072
53	0x3d4b16f4	0.049582437
54	0x3d01ab97	0.03165778
55	0xbe126611	-0.14296748
56	0xbe000258	-0.12500894
57	0x3e92c667	0.28666994
58	0xbcbbd604	-0.022929199
59	0x3dab9a9e	0.083791
60	0x3ed5493e	0.41657442
61	0xbda054c1	-0.078286655
62	0x3ea47676	0.3212163
63	0xbe1b5834	-0.15170366
64	0x3e8519a9	0.2599614
65	0x3dcbcca2	0.0995114
66	0xbf0b02a7	-0.5430092
67	0x3df30b96	0.11867444
68	0x3e1cb083	0.15301709
69	0xbdf84d48	-0.12124115
70	0xbe4b2fd1	-0.1984246
71	0xbe96195b	-0.2931622
72	0xbe12bf62	-0.14330819
73	0xbe3981dc	-0.18115944
74	0xbe755f8f	-0.23962234
75	0xbd705659	-0.058676098
76	0x3d270b65	0.04078235
77	0xbe6f252a	-0.2335402
78	0xbf02dc56	-0.51117456
79	0x3e0c4efa	0.13702002
80	0x3e63784e	0.22213861
81	0xbdb1e735	-0.08686677
82	0x3e11d6fe	0.1424217
83	0x3dadd0ef	0.084871165
84	0x3e4297d0	0.19003224
85	0xbdf78894	-0.12086597
86	0xbe05f58f	-0.13081954
87	0xbd41861f	-0.04724705
88	0xbd028f71	-0.031875078
89	0x3e530127	0.20605908
90	0xbed2a7b9	-0.41143587
91	0xbd75ae11	-0.059980456
92	0x3e3af00d	0.18255635
93	0xbebc460f	-0.367722
94	0x3e671c06	0.22569284
95	0x3d1028b3	0.035195064
96	0xbc4b7726	-0.012418544
97	0xbcd09c68	-0.025465205
98	0xbe9c7b5b	-0.30562863
99	0x3d0b7bec	0.034053728
100	0x3e05172a	0.12997118
101	0xbe3fb4c9	-0.18721308
102	0x3de323d7	0.1109082
103	0x3e01bcc2	0.12669662
104	0x3cf99aef	0.030469386
105	0x3dcac28f	0.0990039
106	0xbe6fa452	-0.23402527
107	0xbb965f72	-0.0045890147
108	0xbf1e9832	-0.6195098
109	0xbe2a9160	-0.16657019
110	0x3e1e1ec8	0.1544143
111	0xbd47ce1f	-0.048780557
112	0xbe5e8e1e	-0.21733901
113	0x3e01df02	0.12682727
114	0xbe418b3b	-0.18900768
115	0xbce2f521	-0.027704777
116	0xbe52bfe3	-0.20581011
117	0x3e0c9081	0.13726999
118	0xbe85a0a3	-0.2609912
119	0x3e624210	0.22095513
120	0xbe8bf0af	-0.27332065
121	0xbe8b3c3a	-0.27194387
122	0xbdec06c5	-0.11524729
123	0x3e3c585e	0.18393084
124	0xbea49e2f	-0.32151935
125	0xbd1ccdb0	-0.038282096
126	0x3d9bcb26	0.07607107
127	0x3e709f5f	0.23498295
128	0xbda6caf8	-0.08144182
129	0xbe455e90	-0.19274354
130	0xbe4b6bc2	-0.19865325
131	0xbe297414	-0.16548187
132	0x3e8bb235	0.272844
133	0x3d762990	0.06009823
134	0xbe56cc51	-0.20976378
135	0xbea4aa08	-0.32160974
136	0x3e52c532	0.20583037
137	0xbeaebe71	-0.3412967
138	0x3de9b110	0.11410725
139	0xbe885674	-0.26628458
140	0xbd6d532c	-0.057940647
141	0x3e70adbd	0.23503776
142	0xbe18e923	-0.14932685
143	0x3dec9513	0.11551871
144	0xbe9412a6	-0.28920478
145	0x3e2b87bb	0.16750996
146	0xbe2da8d2	-0.16958931
147	0x3df9d416	0.12198655
148	0xbd27243a	-0.040806033
149	0xbe691cea	-0.22764936
150	0x3e92fc71	0.28708223
151	0xbe1d5d1b	-0.15367548
152	0xbd88f5e1	-0.06687523
153	0xbd35ac9e	-0.044354074
154	0x3e4763ba	0.19471636
155	0x3e873593	0.2640806
156	0xbe7efafd	-0.24900432
157	0x3e8dc2e6	0.27687758
158	0xbd9addc8	-0.07561833
159	0xbd6d659f	-0.05795824
160	0x3da7ce05	0.08193592
161	0xbdc8d12a	-0.0980552
162	0xbe28d1f8	-0.16486347
163	0xbe8ad24a	-0.27113563
164	0xbe70fa35	-0.23532946
165	0xbe9c406a	-0.30517894
166	0xbe9a112c	-0.30091226
167	0xbcc0e2fa	-0.02354573
168	0xbe432e7d	-0.19060703
169	0x3e0a2619	0.13491096
170	0x3c9c9808	0.019115463
171	0x3d9bcead	0.0760778
172	0xbddc81af	-0.10766923
173	0xbd9006c5	-0.07032541
174	0x3e9284fd	0.28617087
175	0x3d6eb65e	0.058279388
176	0xbe9303cb	-0.2871383
177	0x3d2ccec4	0.042189375
178	0xbe7c4865	-0.24636991
179	0xbe5dde28	-0.21666777
180	0xbda95ee5	-0.08270053
181	0xbdbd4857	-0.09242313
182	0x3de21066	0.11038284
183	0x3e7f9a07	0.249611
184	0xbe64adb5	-0.22331889
185	0x3e4ca440	0.19984531
186	0xbe396b71	-0.18107392
187	0x3ce76470	0.028246135
188	0xbe3e9c61	-0.18614341
189	0x3c2a9fed	0.010414106
190	0xbe232c01	-0.15934755
191	0x3d9a224d	0.075260736

encoder.conv2.bias f4 [32]
0	0xbeb8ae63	-0.36070547
1	0xbea8f217	-0.329972
2	0x3e991317	0.29897377
3	0x3ecce28a	0.40016586
4	0x3eb2223f	0.34791753
5	0xbecb378d	-0.3969082
6	0xbec6ba5e	-0.38814062
7	0xbea0bca1	-0.31393912
8	0x3ec5e75f	0.38653085
9	0xbedb5d69	-0.42844704
10	0x3e28abf9	0.16471852
11	0xbed8ab92	-0.42318398
12	0x3e5e20aa	0.21692148
13	0x3ed237ab	0.41058096
14	0xbec3df62	-0.38256365
15	0xbedda6e2	-0.43291384
16	0xbe933811	-0.28753713
17	0x3df95090	0.12173569
18	0x3ea61c0d	0.32443276
19	0x3df75c32	0.12078132
20	0xbec8964a	-0.3917716
21	0x3ea7d691	0.3278089
22	0xbe9ae270	-0.30250883
23	0xbeb44a58	-0.3521297
24	0x3ec6cbb7	0.38827297
25	0x3ec8a7d1	0.39190534
26	0x3e1db272	0.15400103
27	0x3df3445e	0.118782744
28	0xbeaa8d71	-0.33311036
29	0x3ec703ab	0.38869986
30	0xbeccc0c9	-0.39990833
31	0x3ec39aa3	0.38203916

encoder.conv2.lin.weight f4 [32, 64]
0	0xbe8a4bb9	-0.27010897
1	0x3e077fc0	0.13232327
2	0xbe615480	-0.2200489
3	0x3d7ad1f4	0.061235383
4	0xbe8a8001	-0.27050784
5	0x3db1e62c	0.0868648
6	0xbde29aa4	-0.110646516
7	0xbe136d14	-0.14397079
8	0xbccb996e	-0.024853434
9	0xbdf4cce9	-0.11953146
10	0xbccd8b33	-0.02509079
11	0x3e0cfc64	0.13768154
12	0x3e0d403f	0.13794039
13	0x3dfbea8b	0.12300595
14	0xbdf031c6	-0.117282435
15	0xbe02577a	-0.12728682
16	0x3e0d2ce9	0.13786663
17	0x3cd435c3	0.025904542
18	0xbe66b942	-0.22531608
19	0xbd99bf8b	-0.07507237
20	0x3dddff27	0.10839682
21	0x3d902371	0.0703801
22	0xbddd49c9	-0.10805089
23	0xbd84b7f4	-0.06480399
24	0x3e6e2cda	0.23259297
25	0xbc4d8e9c	-0.012546208
26	0xbe50f277	-0.20404993
27	0xbb638084	-0.0034714052
28	0xbe1f2766	-0.15542373
29	0xbe0be7f0	-0.13662696
30	0x3e25ba42	0.16184333
31	0x3db1f24c	0.086887926
32	0x3d44c597	0.04804
33	0xbd62705c	-0.055282936
34	0x3e3ed6c0	0.18636608
35	0xbe80ec89	-0.25180462
36	0xbdd9a17e	-0.10626505
37	0xbcd499d2	-0.025952253
38	0xbe005c4e	-0.12535211
39	0xbd1fd50c	-0.039021537
40	0x3e6ad8e0	0.22934294
41	0xbd000a10	-0.031259596
42	0x3bdd0879	0.006745395
43	0x3dd93270	0.10605323
44	0x3d464ca7	0.048412945
45	0xbc2d0a93	-0.010561603
46	0xbe94b602	-0.2904511
47	0xbe170101	-0.14746477
48	0xbca75ed9	-0.02043097
49	0x3d936b7e	0.07198237
50	0xbe3c1436	-0.18367085
51	0x3e198ea1	0.14995815
52	0xbdc45de0	-0.09588218
53	0xbd0f1f29	-0.034941826
54	0xbdee0a84	-0.116230994
55	0x3d2687ef	0.04065698
56	0x3d83041b	0.063972674
57	0xbd7a8ba0	-0.061168313
58	0xbced62a5	-0.028977701
59	0x3da47a00	0.08031082
60	0xbbc08343	-0.0058750226
61	0xbdfc7f3f	-0.12328958
62	0x3e175bed	0.1478116
63	0x3e457b93	0.19285421
64	0x3e529f1c	0.20568508
65	0xbe3ff058	-0.18744028
66	0xbdd99d33	-0.106256865
67	0x3e7525fb	0.2394027
68	0xbe173b21	-0.1476865
69	0xbd9cf46c	-0.07663807
70	0x3e5c178a	0.21493354
71	0x3e0fdc65	0.14048918
72	0xbdbe6290	-0.09296143
73	0x3b9f5fdc	0.0048637222
74	0xbdae0b2e	-0.08498226
75	0x3e31a0b4	0.1734646
76	0xbd890b54	-0.06691614
77	0xbd1a3aff	-0.03765392
78	0xbe63dba1	-0.2225175
79	0x3e037dae	0.12840912
80	0xbe689f69	-0.2271706
81	0x3e80f6f2	0.25188404
82	0x3e33bcb8	0.17552459
83	0xbe2dd448	-0.1697551
84	0xbe197521	-0.14986087
85	0x3e6e6604	0.23281103
86	0x3cedde55	0.02903668
87	0xbe797e84	-0.24364668
88	0xbe631bca	-0.2217857
89	0x3d2c8250	0.042116463
90	0xbc6e2253	-0.014534551
91	0x3e53e9c4	0.20694643
92	0x3d1d7390	0.038440287
93	0xbe78fb19	-0.24314536
94	0x3dafb54d	0.08579502
95	0xbe797986	-0.24362764
96	0xbe2a27aa	-0.16616693
97	0xbcf3303d	-0.029686088
98	0xbe117eae	-0.1420848
99	0x3e2b34bd	0.16719337
100	0x3db837a9	0.08994991
101	0xbd0395c1	-0.03212524
102	0xbdb779c4	-0.08958772
103	0xbdaa2bfb	-0.0830917
104	0x3ca53040	0.020164609
105	0xbd80c924	-0.062883645
106	0xbdd8f673	-0.105938815
107	0x3dbc43d0	0.09192622
108	0xbd9accff	-0.07558631
109	0x3dc8f2e5	0.098119535
110	0xbd74e044	-0.05978419
111	0xbe3ad074	-0.18243581
112	0x3e158991	0.14603259
113	0xbe627280	-0.22113991
114	0xbe59594a	-0.21225467
115	0x3e0f898a	0.1401731
116	0x3e311031	0.17291333
117	0xbe1fc49d	-0.15602346
118	0x3e1605dc	0.14650673
119	0xbcce82d2	-0.025208864
120	0x3df2ed11	0.11861623
121	0x3e2a0a00	0.16605377
122	0xbdc3ab4c	-0.09554157
123	0xbd9d3654	-0.07676378
124	0x3df6eb3f	0.120565884
125	0x3b7c0d4d	0.0038460076
126	0xbda3e1bf	-0.08002042
127	0xbe0b7028	-0.13617003
128	0xbe17b7c2	-0.14816192
129	0xbdfc4390	-0.12317574
130	0xbd30b851	-0.043144528
131	0x3e0c707c	0.13714784
132	0x3e3b4463	0.18287806
133	0xbe1d3a4e	-0.15354273
134	0x3d75cf98	0.06001243
135	0xbdc0f253	-0.0942122
136	0xbd40e25f	-0.047090884
137	0x3df82239	0.121159025
138	0xbdc913fb	-0.09818264
139	0x3e4d72d6	0.20063338
140	0xbdd1ff58	-0.10253781
141	0xbd0025f4	-0.031286195
142	0xbe228053	-0.15869264
143	0xbddaae7a	-0.1067781
144	0x3e70d79f	0.23519753
145	0xbe0d7aac	-0.13816327
146	0xbe6de29c	-0.23230976
147	0x3e705912	0.23471478
148	0x3e66c292	0.2253516
149	0x3d43e445	0.047825117
150	0x3e050c45	0.12992962
151	0xbe4e519e	-0.20148322
152	0x3e51e392	0.20496967
153	0xbe6d8dac	-0.23198575
154	0xbdda2cfc	-0.10653111
155	0xbd9cda1c	-0.076587886
156	0x3df9934c	0.12186298
157	0xbe048e35	-0.12944873
158	0xbd898397	-0.06714552
159	0x3d695fe6	0.05697622
160	0xbe23bfef	-0.15991186
161	0x3d8c2d3c	0.06844565
162	0xbd852519	-0.065012164
163	0x3e4a1ab4	0.19736749
164	0x3e0ea3f1	0.13929726
165	0xbd5874e9	-0.05284587
166	0xbdbf073c	-0.09327552
167	0xbe52ecff	-0.2059822
168	0x3daa6bd0	0.08321345
169	0xbe0eb0fa	-0.13934699
170	0xbd4de76b	-0.050269525
171	0xbe300a2a	-0.17191377
172	0x3ddf4024	0.10900906
173	0xbdaeef10	-0.08541691
174	0x3df977a1	0.121810205
175	0x3e7cd513	0.24690656
176	0xbe1b8a97	-0.15189587
177	0x3e62ecef	0.22160695
178	0xbd7fd5b8	-0.062459677
179	0xbde5be2d	-0.11217914
180	0x3d89ed95	0.06734768
181	0xbc7c4e73	-0.015399563
182	0x3ce36970	0.027760237
183	0x3e887f94	0.26659834
184	0xbe012ee8	-0.1261555
185	0xbe10397c	-0.14084429
186	0x3d10e9aa	0.03537909
187	0xbda7ed00	-0.08199501
188	0x3d544f17	0.05183324
189	0x3e678d1e	0.22612426
190	0x3e4835ba	0.19551745
191	0xbdc5731b	-0.09641095
192	0xbc445f3f	-0.011985599
193	0xbe61d20e	-0.22052786
194	0x3e548199	0.20752563
195	0xbe307f2c	-0.17236012
196	0x3d97ba6c	0.07408604
197	0xbd996ae4	-0.07491091
198	0x3d87efb8	0.066375196
199	0x3d58125b	0.05275188
200	0x3da1310d	0.07870684
201	0x3e836c6f	0.25668666
202	0x3e8e364e	0.27775806
203	0xbd7c38cc	-0.061577603
204	0xbd612e7c	-0.05497597
205	0xbe2e0a50	-0.16996121
206	0x3dce60b4	0.100770384
207	0xbcbb6d7a	-0.02287935
208	0x3e18e1fc	0.14929956
209	0xbdab50d1	-0.08365024
210	0x3e28d17e	0.16486165
211	0x3dbd7de6	0.09252529
212	0xbd139716	-0.03603276
213	0xbcad4831	-0.021152588
214	0xbcc5f07b	-0.024162522
215	0x3aa3fe00	0.0012511611
216	0x3e32cb8a	0.17460456
217	0xbe19404c	-0.14965934
218	0xbdb8e313	-0.09027686
219	0xbc99b8e2	-0.018764917
220	0xbe0ff4a6	-0.1405817
221	0x3e82b436	0.25528115
222	0xbe11ac0a	-0.14225784
223	0xbc857390	-0.016290456
224	0x3d7b05d9	0.061284874
225	0x3e6c892b	0.230992
226	0xbe350048	-0.17675889
227	0xbd23269f	-0.039831754
228	0x3e9636f8	0.29338813
229	0x3d295995	0.041345198
230	0xbbc4c240	-0.0060046017
231	0xbd581444	-0.0527537
232	0x3d19cb60	0.03754747
233	0x3d5696c1	0.052389864
234	0x3dfbdc56	0.12297885
235	0xbca4b500	-0.020105839
236	0x3e4e8906	0.20169458
237	0xbcc1b792	-0.023647103
238	0xbd6b68a9	-0.05747286
239	0x3e911e21	0.283433
240	0x3e015a96	0.12632212
241	0xbe0bad95	-0.13640435
242	0x3ca3a5b0	0.019976467
243	0x3ad7b963	0.0016458448
244	0x3d86dc2d	0.06584964
245	0x3e1f52dd	0.15558954
246	0x3d80ba54	0.06285539
247	0x3dc33159	0.09530897
248	0xbe07db97	-0.1326736
249	0x3d99564c	0.07487163
250	0x3e75eb6c	0.24015588
251	0x3d7d5c68	0.061855704
252	0xbd23aab1	-0.039957706
253	0x3e3dd13b	0.18536846
254	0xbe260634	-0.16213304
255	0x3e21bb9b	0.15794222

decoder.lin1.weight f4 [16, 64]
0	0xbc3742f2	-0.011185395
1	0xbd6e9ffb	-0.058258038
2	0x3e08d165	0.13361128
3	0xbd7841c9	-0.060609613
4	0xbcaf353e	-0.021387693
5	0xbe128e83	-0.14312176
6	0xbdefdfda	-0.11712618
7	0x3c947e7c	0.018126719
8	0x3e1d9746	0.15389737
9	0xbc8a1e5c	-0.01686018
10	0x3e1d791e	0.15378234
11	0x3b9ba317	0.0047496664
12	0x3c06babe	0.008223234
13	0x3e2f2096	0.17102274
14	0xbe19e056	-0.15026984
15	0xbd5e9be7	-0.0543479
16	0x3e247fbb	0.1606435
17	0xbddd43d4	-0.10803953
18	0x3da3d1da	0.079990104
19	0xbc8cea43	-0.017201548
20	0x3ca39552	0.019968662
21	0xbc2f5030	-0.0107002705
22	0xbd273277	-0.04081961
23	0x3d389815	0.04506691
24	0xbd7b28a1	-0.061318044
25	0x3d90038c	0.070319265
26	0xbe298cb6	-0.16557583
27	0x3d3e0822	0.046394475
28	0x3c935f9e	0.01798993
29	0xbc52eb1b	-0.012873436
30	0x3d359501	0.044331554
31	0x3c1c0bd4	0.009524304
32	0x3d761a2c	0.060083553
33	0xbd308314	-0.043093756
34	0x3d26ccbb	0.04072259
35	0xbc90cc7c	-0.01767563
36	0x3e39ec1e	0.18156478
37	0xbe147c80	-0.14500618
38	0xbe07d915	-0.13266404
39	0xbe10d442	-0.1414347
40	0x3e2da288	0.16956532
41	0xbd4ee40f	-0.050510462
42	0x3e338680	0.17531776
43	0xbd53a13b	-0.051667433
44	0x3d5ff40f	0.05467611
45	0x3de3c3e1	0.11121345
46	0xbe2e6d0d	-0.17033787
47	0xbe220592	-0.15822437
48	0xbd063851	-0.03276855
49	0x3cae9a61	0.021313848
50	0x3e29eacb	0.16593473
51	0x3d708c94	0.058727816
52	0xbdc00e3d	-0.09377716
53	0x3da6dfec	0.081481785
54	0x3cd85137	0.026405914
55	0xbd0818e0	-0.033226848
56	0xbd379a1e	-0.044824712
57	0x3bfd3ce1	0.0077282046
58	0x3d0d84c0	0.03455043
59	0x3daa3b4f	0.083120935
60	0xbbfc9a34	-0.007708812
61	0x3dd285cd	0.10279427
62	0xbe35255a	-0.1769003
63	0xbd84724f	-0.06467115
64	0x3d0dbc44	0.034603372
65	0xbca66efd	-0.020316595
66	0xbdadbbad	-0.08483062
67	0xbe040f9f	-0.12896584
68	0x3e0194b3	0.1265438
69	0x3dac7588	0.08420855
70	0x3d6aec66	0.057354353
71	0x3dbfcc0e	0.09365092
72	0xbd83b74f	-0.06431448
73	0x3cae6009	0.021286028
74	0xbdce7ab2	-0.10081996
75	0xbc90c201	-0.017670633
76	0x3d32c789	0.043647323
77	0x3d155817	0.036460962
78	0x3e00a30c	0.12562197
79	0xbc35ef58	-0.011104427
80	0xbdf76b5c	-0.12081024
81	0xbc9ce59c	-0.019152455
82	0x3d83a2af	0.06427514
83	0x3e04ce74	0.1296938
84	0xbda19450	-0.078896165
85	0xbe0ccf31	-0.13750912
86	0xbbee47a4	-0.007271724
87	0x3dca21d7	0.09869736
88	0xbd63fcb2	-0.05566091
89	0x3d195086	0.03743031
90	0x3d56e4eb	0.052464407
91	0x3d2ffc74	0.042965367
92	0x3dee15da	0.116252616
93	0xbe15a949	-0.14615358
94	0xbc86f2fa	-0.016473282
95	0xbc9bf2fe	-0.019036766
96	0x3c9e726e	0.019341674
97	0x3d88d436	0.06681101
98	0xbd49796b	-0.04918806
99	0x3bed0b32	0.0072340006
100	0x3e2a516c	0.16632622
101	0x3cda62c5	0.026658425
102	0xbd6d1cbf	-0.057888743
103	0xbcb0b09a	-0.021568585
104	0xbdbd67ad	-0.0924829
105	0xbc1b3380	-0.009472728
106	0x3d11d5b4	0.035604194
107	0xbcdb4ebc	-0.026770942
108	0x3ca1ec8e	0.019766118
109	0xbddbb3ee	-0.10727678
110	0xbc6e5d48	-0.014548607
111	0x3dcba2a7	0.09943133
112	0x3bddfe44	0.0067746956
113	0x3dba9118	0.09109706
114	0x3d445e71	0.04794163
115	0x3da58fae	0.08084045
116	0x3d4f5401	0.05061722
117	0xbdd9df77	-0.10638326
118	0x3e10703e	0.14105317
119	0x3d84fd0c	0.06493577
120	0x3c898068	0.016784862
121	0xbe1df978	-0.15427196
122	0x3e216920	0.15762758
123	0x3d4ab4e0	0.049488902
124	0x3e172ffe	0.14764401
125	0xbd0a55b4	-0.03377314
126	0xbc6b574c	-0.014364075
127	0xbdd571ca	-0.10422094
128	0xbd63645e	-0.05551564
129	0x3dfbe23e	0.12299012
130	0xbc8e495f	-0.01736897
131	0xbbeec3fb	-0.0072865463
132	0x3df90dc5	0.121608295
133	0xbdeaec16	-0.11470811
134	0xbe530c82	-0.2061024
135	0x3d922e9f	0.071377985
136	0xbd2a4313	-0.041567873
137	0x3d186c75	0.037212808
138	0x3c96af7f	0.01839423
139	0xbe2c5366	-0.16828689
140	0xbddd3643	-0.10801365
141	0x3e3ec886	0.18631181
142	0xbdb7f646	-0.0898252
143	0xbd25aec3	-0.04044987
144	0x3d7becda	0.061505176
145	0x3de85ba9	0.11345608
146	0x3d7bc55e	0.06146752
147	0x3d686927	0.056740906
148	0xbd983e5f	-0.07433771
149	0x3d4fb6b6	0.050711356
150	0x3db680df	0.08911299
151	0x3de0009e	0.10937618
152	0x3df58b6e	0.11989485
153	0x3dc4c821	0.09608484
154	0xbd6a8f5e	-0.05726563
155	0x3e54a2ac	0.2076518
156	0xbcafb7da	-0.021449972
157	0x3dd4d62b	0.10392412
158	0xbd193250	-0.037401497
159	0xbd1f0c32	-0.03882999
160	0xbdb83ff5	-0.08996574
161	0x3def2776	0.116774485
162	0x3e3c074e	0.18362162
163	0x3df7f24a	0.1210676
164	0x3d81ad51	0.063318856
165	0x3c59e51c	0.013299253
166	0xbd5e1865	-0.054222483
167	0xbb271954	-0.0025497274
168	0xbd1362db	-0.035982948
169	0xbda4402f	-0.080200545
170	0x3e3880e8	0.18017924
171	0xbd1ce6a6	-0.0383059
172	0x3e22c192	0.15894154
173	0x3d80db10	0.06291783
174	0xbd2251de	-0.039628856
175	0xbe3dab7d	-0.18522449
176	0x3e2e31f5	0.17011245
177	0xbe57b88e	-0.21066496
178	0xbc5e2c36	-0.013560345
179	0x3ced9f3e	0.029006597
180	0xbd2c7075	-0.042099435
181	0x3e33ade5	0.17546804
182	0x3c91f064	0.017814822
183	0xbcc6905a	-0.024238754
184	0xbb7c93f8	-0.0038540345
185	0x3d993a78	0.07481855
186	0x3d0e2689	0.03470472
187	0x3dae190f	0.08500873
188	0xbe37dd31	-0.17955472
189	0x3d490f42	0.049086817
190	0x3ca52e05	0.020163545
191	0x3bed7c0e	0.0072474545
192	0xbcf07c20	-0.029356062
193	0xbde585d9	-0.1120717
194	0xbd030352	-0.03198559
195	0xbc6f072c	-0.014589112
196	0x3a32ce3b	0.0006820892
197	0xbcf162a4	-0.02946598
198	0xbdbacf87	-0.09121614
199	0xbc8ab906	-0.01693393
200	0xbe1d36e0	-0.15352964
201	0x3b7bbc52	0.0038411808
202	0xbd8dd895	-0.06926075
203	0x3d9c87e9	0.0764311
204	0xbd74d505	-0.059773464
205	0x3d7c0db9	0.061536524
206	0x3d87e3bd	0.066352345
207	0xbdc12c3e	-0.09432267
208	0x3d8e1bb2	0.06938876
209	0xbaf26024	-0.0018491787
210	0xbe0e6c81	-0.13908578
211	0x3e017217	0.12641178
212	0xbd3dadc7	-0.046308305
213	0xbe67a66d	-0.2262208
214	0x3e325f38	0.17419136
215	0x3d99eefd	0.075162865
216	0xbd2208e1	-0.03955925
217	0x3cacc886	0.02109171
218	0x3e019166	0.12653121
219	0x3dc99c84	0.09844306
220	0x3da2c655	0.07947985
221	0xbe2a2cd5	-0.16618665
222	0x3d0e4fa0	0.034743905
223	0xbdcb3056	-0.09921329
224	0x3dc1d8a4	0.09465149
225	0x3e3f83d7	0.18702637
226	0xbdc53865	-0.09629897
227	0xbe8490bf	-0.25891683
228	0x3cc9978a	0.024608392
229	0x3d4848a4	0.0488974
230	0xbb863c35	-0.0040965327
231	0x3c16dc7e	0.009207843
232	0x3e03e588	0.12880528
233	0xbd2d9dbb	-0.04238675
234	0xbdb72a19	-0.08943576
235	0xbd24efce	-0.040267758
236	0x3d753945	0.05986907
237	0xbcf04845	-0.029331336
238	0xbb82d5ec	-0.0039927866
239	0xbc2de485	-0.010613565
240	0xbd765858	-0.060142845
241	0xbe0619e9	-0.13095821
242	0x3d952ba1	0.07283712
243	0xbdc2b5ce	-0.09507333
244	0x3cbdcd44	0.023169167
245	0xbe33cf40	-0.17559528
246	0xbd466bbb	-0.048442584
247	0x3e24ece7	0.16105996
248	0xbd579c4b	-0.052639287
249	0xbe193d20	-0.14964724
250	0x3c855947	0.016277922
251	0xbd40e3be	-0.047092192
252	0xbdcf19d1	-0.10112346
253	0x3c8fb435	0.017541984
254	0xbd0bdd8e	-0.034146838
255	0xbc5ffb51	-0.013670758

decoder.lin1.bias f4 [16]
0	0x3dc612ee	0.09671579
1	0xbe271d17	-0.1631969
2	0x3e8245fe	0.25444025
3	0x3ed5e339	0.4177492
4	0x3ec8d46e	0.3922457
5	0xbeafa8b4	-0.34308398
6	0x3e328ad1	0.17435767
7	0xbe5475fe	-0.20748135
8	0x3e9d8a45	0.30769554
9	0xbd2b2887	-0.041786697
10	0xbe08ce76	-0.13360009
11	0x3d8e9dce	0.069636926
12	0xbeb6bbf4	-0.35690272
13	0x3ed308d7	0.41217682
14	0xbdcf8902	-0.10133554
15	0x3e9f913c	0.31165493

decoder.lin2.weight f4 [1, 16]
0	0xbe2f7b92	-0.17136982
1	0x3e20f122	0.15716985
2	0xbccc4be6	-0.024938535
3	0xbd05d55d	-0.032674182
4	0xbd9dc6c0	-0.07703924
5	0x3df6f7aa	0.12058957
6	0xbcdf34d5	-0.027246872
7	0x3dec2f69	0.1153248
8	0xbddd607a	-0.10809417
9	0x3e2ed927	0.17075025
10	0x3d7ca54e	0.061681084
11	0xbddd75d2	-0.10813488
12	0x3e17a81b	0.14810221
13	0xbdec217d	-0.11529825
14	0xbda1a4ec	-0.078927845
15	0xbcb51524	-0.022104807
