edge_gnn_model.pth (torch, 17108 bytes, 7 tensors)

encoder.conv1.bias f4 [64]
00000000: d6ad 76be 57f4 a0be 356e a5be 0000 0000
00000010: 3128 bb3d d666 b7bd f849 f3bd 1115 92be
00000020: 0000 0000 26fd 0ebe 7297 823e 69ff 25be
00000030: 2448 7f3d 50cb a6be f6a3 9fbe e0f1 2abe
00000040: 0000 0000 0000 0000 6cd1 f4bc 82e6 6d3e
00000050: 1515 c6bd 0000 0000 e009 1ebe 77cd 06be
00000060: fee9 b1be 0000 0000 6268 97be 0000 0000
00000070: 0000 0000 0000 0000 e8b0 b03e 08d1 9bbe
00000080: 0000 0000 0000 0000 dd33 aebe c1be 2fbe
00000090: 0000 0000 0000 0000 ee55 fc3e 56d1 d33e
000000a0: 0000 0000 0000 0000 064c 25bd 3122 ad3e
000000b0: a12f 87be 2457 e53d 74bd 5fbe 0000 0000
000000c0: 0000 0000 76d0 08be 0000 0000 cb07 a33e
000000d0: 0000 0000 2576 28be 0968 92bd 0000 0000
000000e0: f6b8 fdbd 870f 373e b5ee 98be 1f5c 46be
000000f0: 3e83 893e 11a5 9b3e 13ad 7bbe 4ea3 b63d
-0.2408975 -0.31436417 -0.32310644 0.0 0.09138525 -0.08955161 -0.11879343 -0.28531697
0.0 -0.13963756 0.2550617 -0.16210712 0.062324658 -0.3257699 -0.3117978 -0.1669383
0.0 0.0 -0.029885016 0.23232463 -0.0967199 0.0 -0.15433455 -0.13164316
-0.34748834 0.0 -0.29571825 0.0 0.0 0.0 0.3450997 -0.30432916
0.0 0.0 -0.34023944 -0.1716261 0.0 0.0 0.4928431 0.41370648
0.0 0.0 -0.040355705 0.33815148 -0.26403525 0.111982614 -0.21849614 0.0
0.0 -0.13360772 0.0 0.31841883 0.0 -0.16451319 -0.071487494 0.0
-0.12388794 0.17877017 -0.2986962 -0.19371079 0.26857942 0.30399373 -0.24577741 0.08917867

encoder.conv1.lin.weight f4 [64, 3]
00000000: 60d6 07bf 405b d4bd f33a dc3d 09b2 f4be
00000010: 8928 fb3c 973e c93d 79f6 57be bd20 b1bc
00000020: 7637 5f3e 67e2 023d cba4 98be 5c91 84be
00000030: f0f7 dd3d 852e 1f3d f7e5 4a3e 04e5 013e
00000040: 7f90 583e bd8e b13d 5453 a3be 0b51 8d3d
00000050: 4999 fcbd 73a7 1b3c 6bd4 1b3d 2030 c53d
00000060: 8577 21be ff24 90be 158b 62bd cfea d73d
00000070: be32 8d3e 29f6 dfbc 8b43 083f d44c aa3c
00000080: 6bcd 9ebe 8be2 bdbe 6035 0e3e 7996 393d
00000090: 1107 143d 2a64 3bbd c4e2 da3d 8d66 f6be
000000a0: a587 3c3e 524d 2abb 594c c3be b019 203e
000000b0: 9260 e63c a15d cfbe 39e9 853c 80df 83be
000000c0: f854 3ebe 209c 7abe dbd8 82be 6a34 5dbe
000000d0: fc6e 3dbe 8074 a1bd 6e1a 9bbe 208f 08bc
000000e0: db90 88be 6776 0a3f 04d7 363e ad6b 1a3e
000000f0: eccf 34be cb8b edbb 5c12 89be de8c 693e
00000100: 6a8c 09be 1c55 8fbd 9709 c4be f21a c6bc
00000110: 1f90 f73d 9368 afbe ff70 773e 671d 54bd
00000120: 4b8a 64be 24b1 503d 4175 8b3d 9d6a 773d
00000130: 197d 3ebe 6390 d0bc 08df e8be 0f84 6abe
00000140: a4d3 963d e00b de3d f1cb 90be b10d 09be
00000150: 89ec 96be de54 7bbe b624 bdbd 2b7c af3d
00000160: c8c0 0dbe a843 febd 8661 4a3e cd6f 313e
00000170: 6c07 0fbd dea2 cdbe 454e 8abd 548e d63d
00000180: f99a 003d b30f a9bd 589a 70bd da80 6e3c
00000190: f0cc 41be 8b63 69bd f37d cdbe e2c4 403e
000001a0: 6715 983c f9c3 663c 4c18 753e 92e3 463e
000001b0: 869c 8cbb 3ded 93be 1ccd 9dbc 0335 f03d
000001c0: bb2f 78be 93cc 50be 6be0 2a3f c999 1c3e
000001d0: 29b3 ac3c e9cf 253f cb61 0c3e d286 623c
000001e0: cabe 1a3d 4e11 8cbe a162 16be 757d bbbb
000001f0: fdb0 cbbd f8d9 32be b90a 84be b898 803e
00000200: f6d9 983e dcc0 013e 4a21 e3bd 9db0 8b3e
00000210: ffaf adbe 0e7c 47bd 64a4 413e 5f8b e5ba
00000220: 0d6e 3bbe f3b6 8e3d 3cb5 16be 1795 723e
00000230: f4a4 083e aff3 3ebe c7e1 5ebe 3783 18bd
00000240: 9226 76be 7571 3abe 640b bfbd 6880 0cbe
00000250: 529e f6bc 6c1a 54bb 3837 973e d792 84bd
00000260: 680b d7bd b759 093f 64d2 583d 594a 45bc
00000270: 59ff 38be 992d 97be a0a3 3dbe f664 bebe
00000280: 82c5 b93d dedf e7bd eaad cdbd 5dfd 0fbe
00000290: ce85 b83c 5129 85be eefa 70be cf75 82be
000002a0: 8037 d2be f415 e53d b98a 8c3e da51 6c3e
000002b0: ae64 7aba 1dc7 373e 61d1 04bf 394f 443e
000002c0: 74f6 293e c63f a6bd c6ae 7d3d fb08 543e
000002d0: 2a1f c23e 0505 75be 0530 ae3b 385c f63d
000002e0: 91b3 b9be cf92 813c b166 02bf b928 04be
000002f0: 8601 ef3d 14db 183e f93d 09be 76b0 463e
-0.53061485 -0.10368967 0.10753431 -0.4779208 0.030658977 0.09826391 -0.21090116 -0.021622056
0.217985 0.031954195 -0.29813227 -0.2589215 0.10838306 0.038862724 0.19814287 0.12685019
0.21148871 0.08669803 -0.31899512 0.06900223 -0.12333924 0.009500372 0.038044374 0.0962832
-0.1576825 -0.28153226 -0.05530842 0.10542833 0.27577776 -0.027339058 0.5322806 0.020788588
-0.31016096 -0.370869 0.13887548 0.045309518 0.03613955 -0.04574982 0.10687783 -0.48125115
0.1841112 -0.0025986028 -0.38144186 0.15634799 0.02812222 -0.4050112 0.01634656 -0.25756454
-0.185871 -0.2447362 -0.25556073 -0.21602026 -0.18499368 -0.07883549 -0.30293602 -0.008334905
-0.26673016 0.5408692 0.1785546 0.15080138 -0.17657441 -0.0072493306 -0.2677182 0.22807643
-0.1343247 -0.06998655 -0.38288566 -0.02418277 0.12088036 -0.3425947 0.24164198 -0.051785853
-0.2231838 0.050950184 0.06809474 0.06040441 -0.18602408 -0.025459474 -0.4548266 -0.22901939
0.07364586 0.10842109 -0.28280595 -0.13384129 -0.29477337 -0.24544093 -0.09235518 0.08568605
-0.13843071 -0.12415248 0.19763765 0.17327805 -0.034919187 -0.4016332 -0.0675321 0.10476366
0.031397793 -0.082549475 -0.058740944 0.014557088 -0.18925834 -0.056979697 -0.40135154 0.18825105
0.018564893 0.014084809 0.2393505 0.19422749 -0.00429112 -0.28891936 -0.019262843 0.11728861
-0.24236958 -0.20390539 0.66748685 0.1529304 0.021081524 0.6477037 0.1370918 0.013826089
0.037779607 -0.27356952 -0.14686061 -0.0057217428 -0.09945867 -0.17465961 -0.2578943 0.25116515
0.2985379 0.12671226 -0.11090334 0.27283183 -0.33923337 -0.048702292 0.18910366 -0.0017512849
-0.183037 0.069684885 -0.14717573 0.23689686 0.13344175 -0.18647645 -0.21765815 -0.03723451
-0.24038151 -0.18207343 -0.093283445 -0.13720858 -0.03010479 -0.0032364381 0.29534316 -0.0647332
-0.105002224 0.5365252 0.05293502 -0.012041652 -0.18066157 -0.29526976 -0.18519449 -0.37186402
0.09070875 -0.11321996 -0.10042937 -0.14061494 0.02252474 -0.26008084 -0.23533222 -0.25480506
-0.41057968 0.11185828 0.27449587 0.23078099 -0.00095517456 0.1794705 -0.51881987 0.19170846
0.1659792 -0.081176326 0.061934255 0.20706551 0.379144 -0.23927696 0.005315783 0.12029308
-0.3626981 0.015817074 -0.50937945 -0.1290616 0.116702124 0.14927322 -0.13402547 0.19403252

encoder.conv2.bias f4 [32]
00000000: 4008 433e 3ccd d43c c57a c0be 0dd8 513e
00000010: 42d6 dd3e c3c1 71be 1daa c3be 413f 9f3d
00000020: 6a83 b33e 81a9 983e b1e3 e63d d90a babe
00000030: c452 a33e 630e 183e 024d dcbe a236 a83e
00000040: 58f8 c7be d352 abbe 6a25 d2be d17a 4f3d
00000050: 3948 c73e d7dc a2be f857 833e c7d2 c4be
00000060: 66dc 323e ae46 acbe c93d a83e 5621 c73e
00000070: 6b27 bf3e eb2b b63e a4df 8c3e 8c15 82bd
0.19046116 0.02597677 -0.37593666 0.20492573 0.43327528 -0.2360907 -0.38215724 0.077757366
0.35061198 0.2981682 0.112738974 -0.363364 0.31899083 0.14849238 -0.43027502 0.32854182
-0.3905666 -0.33461627 -0.4104417 0.050654236 0.3892229 -0.31809112 0.25653052 -0.3844206
0.17466888 -0.33647674 0.32859638 0.3889262 0.3733476 0.35580382 0.27514374 -0.06351766

encoder.conv2.lin.weight f4 [32, 64]
00000000: b692 ee3d 8434 91bd 103d 16bd b062 6bbe
00000010: db9a 8ebd 8716 2fbe 381c b73d b322 8e3e
00000020: 840d e3bd e653 8b3e b8ba 9c3d 2d4b 49bd
00000030: f951 0d3e 22de 0c3e a982 9dbd 4f08 2dbe
00000040: 54f6 473e 3427 bb3d 9c68 a23d 8e2f ccbd
00000050: 066a 5cbe 40b6 73be 356d d73d 8b33 863c
00000060: 1bbd 30be 2e14 63be a05d ebbd 3ca3 96bd
00000070: 122f 523e 3013 0a3e 7cd4 2bbe fc10 343e
00000080: a879 dcbd 8048 3cbe 6467 31be e39d b23d
00000090: e059 1fbe e87b 633d 75cd 41be 8dd5 0d3e
000000a0: c87b 24be 28ff 163e 441f 473e 0bcb 823e
000000b0: 6d2f 6e3e f15f 603e ed7d 3f3e a8ae f53d
000000c0: 188f 373d 2f8f 42be 040e 26be e650 30be
000000d0: 5cd5 10be 1bac 22be 9a24 503e 50b7 f93d
000000e0: 76a4 373e 376f a7bd dacd 1fbe 0679 c63c
000000f0: 5953 a1bd 55f2 12be a90b 273d 06bc 403e
00000100: d6e0 57be f4e2 44be e9fd 533d 103b 14be
00000110: f11e e93b 5104 76be 22b4 18bd a904 193d
00000120: d0ef 57bd 49c6 7f3d fdb9 423e d9e1 1e3d
00000130: 69c5 4d3e 4f02 3f3d 8ead 6ebe e45a 833c
00000140: 1c86 a53d f07a f8bd fa46 e3bd 3053 82be
00000150: de4e 80bd fa4b 4d3e e6ca 253e bdb8 153e
00000160: ea73 8a3d 8038 1fbc ef99 9ebd f01d 073e
00000170: 6e28 00be 4058 af3d ff54 1d3e 0292 debd
00000180: 9867 333e 821a 533e 6b68 123e 0ef8 d23c
00000190: 5218 6bbe 8408 5dbe 1f6b bebd b320 87be
000001a0: b854 5d3d 4099 2cbc 5fc6 33be c6f9 1b3e
000001b0: c511 64be b464 eb3d 4e61 5cbe 22f6 693e
000001c0: 408c 843b 7ff0 c63d 5c2d e2bd 7768 69be
000001d0: 1047 56bd 82c2 86be 23b1 e6bd 18c4 13be
000001e0: 85e6 90bd f7e1 71be 317a 233e 6a07 a7bd
000001f0: 19ad 85be 2ea2 c2bd 8fc9 67be 5bbf 02be
00000200: c39c 543e 3ff5 2b3e 844d 18bc 08d0 c8bd
00000210: 7d31 1b3e 556f 0abe fc98 f73d bbf2 3abe
00000220: e090 48bc c4ad 383e 3e9e 343a 48c8 81bd
00000230: cf10 5abe 5839 08bd b344 24bc 93c5 103e
00000240: 2e60 603e 18b5 6e3e a9cc 0ebe 4828 74be
00000250: 329b 703c 60eb 353c c59d 0bbe eb8f e53d
00000260: 02ba 78be ee5e 0bbe 89ad ed3d e0b6 043c
00000270: 2075 373c ceb2 4dbe 83a1 4ebe 6fb9 633e
00000280: 005b 323b 625f 5ebe b033 433e 5e33 eabb
00000290: 5820 783d 2efe 2d3e 418d 863e 5465 863d
000002a0: 00aa c1ba 604e 463c 5c85 d23d 73eb 6dbd
000002b0: cac7 f03d 951c 253e eaff 33be 7ee9 7b3e
000002c0: c8ad 213d 8afe 763d d831 32bd 1f58 11be
000002d0: 0876 0dbe b786 953b 9c6b 243e 48f3 c13d
000002e0: 0989 e3bd 0d55 a73d e13f 553e 2d31 cd3d
000002f0: 0f9e edbd 21ce b1bd 3a8b 443e 2e6f 03be
00000300: e5b8 043e 4c71 ac3d ab83 9c3e f2fa 6b3e
00000310: ac99 6bbd 1dfc cd3d 7ffd 5cbd 9220 0ebe
00000320: b08d 473e cab8 b8bd 1d51 3c3e 34df 3abd
00000330: db65 4c3e 76c7 d1bc 6eb6 24be de46 973d
00000340: e2a6 62be bc53 953d 907e 193e 57c2 e8bd
00000350: c111 003d 241e 573e 243f 963d 8320 283e
00000360: 962b 28be 28bb babd 4504 3dbe f0e9 623e
00000370: 98ea f73d b25e 243e 2e79 523e 2667 b63c
00000380: 842a 44be 545c db3d 91b1 96bd c5a3 e9bd
00000390: 1c9a 0b3e 5406 28be 9e71 ce3c 7238 12be
000003a0: 2666 0b3e ac86 973d 4e11 dfbd f1d8 3cbe
000003b0: 3ae0 a03e 0979 0fbd d874 1cbe a098 43bd
000003c0: 8ccb ac3d cfda df3d d4c5 fc3d 321f 883e
000003d0: 2485 adbd 5ea3 88bc c160 af3d 6e6d 0ebe
000003e0: 96b2 813e a9b2 aa3d 209f 71bc e139 8c3e
000003f0: 8fef 33bc 4c4a c93b 6cff 153e 57d1 f13d
0.11649077 -0.07090095 -0.036679327 -0.22986865 -0.0696313 -0.17098437 0.08940929 0.27760848
-0.11086562 0.27212447 0.07652801 -0.04914396 0.13800801 0.13756612 -0.07690937 -0.168977
0.1952756 0.09138337 0.07930109 -0.09970008 -0.2152482 -0.23799992 0.105188765 0.016382
-0.17259638 -0.22175667 -0.11492467 -0.07355353 0.20525768 0.13483882 -0.16780275 0.17584604
-0.107653916 -0.18387032 -0.17324597 0.08721521 -0.15561628 0.055538088 -0.18926032 0.13850994
-0.16062844 0.14745772 0.1944552 0.25545534 0.23260279 0.21911599 0.1870038 0.11996204
0.0448142 -0.18999933 -0.16216284 -0.1721836 -0.1414389 -0.15885966 0.20326462 0.12193167
0.1793383 -0.081755094 -0.1560587 0.02422763 -0.078772254 -0.14350255 0.040782604 0.18821725
-0.21081862 -0.19227201 0.05175582 -0.14475656 0.007114284 -0.24025084 -0.037281163 0.03735796
-0.052718937 0.06244496 0.19016261 0.038789604 0.20094837 0.04663306 -0.23308393 0.016034551
0.0808222 -0.121328235 -0.11097522 -0.25454092 -0.06265043 0.20048514 0.16190681 0.14621253
0.0676039 -0.0097180605 -0.07744204 0.13195014 -0.12515423 0.08561754 0.15364455 -0.108676925
0.17519987 0.2061558 0.14297645 0.025753047 -0.22958496 -0.2158528 -0.092977755 -0.26392135
0.054035872 -0.0105345845 -0.17556141 0.15232 -0.22272404 0.11493817 -0.21521494 0.22847798
0.0040450394 0.0971384 -0.11043808 -0.22793756 -0.052313864 -0.26320273 -0.11264255 -0.14430273
-0.07075218 -0.23621355 0.15964581 -0.08155711 -0.26108626 -0.095035896 -0.22635482 -0.12768309
0.20762925 0.16792773 -0.009295825 -0.09805304 0.15155597 -0.13519032 0.12089726 -0.18256657
-0.012241572 0.18035036 0.0006890035 -0.06337029 -0.21295474 -0.033257812 -0.010026145 0.14137869
0.2191169 0.2331127 -0.13945259 -0.23843491 0.014685439 0.011103481 -0.13634403 0.11209091
-0.24289706 -0.13610432 0.11605365 0.008100241 0.011197358 -0.2008774 -0.201788 0.22238706
0.0027214885 -0.21716073 0.19062686 -0.0071472367 0.06057772 0.16991493 0.26279643 0.065622956
-0.0014775395 0.012103647 0.102793425 -0.05808587 0.11756857 0.16124184 -0.17578092 0.24600789
0.03947237 0.06030134 -0.043504566 -0.14193772 -0.13814557 0.0045631784 0.16056675 0.0947023
-0.11110122 0.08170519 0.20825149 0.10019145 -0.11602413 -0.08681894 0.19193736 -0.1283538
0.12961157 0.08420047 0.30569205 0.23044947 -0.0575196 0.100578524 -0.05395269 -0.13879612
0.19487643 -0.09019621 0.18390317 -0.04562302 0.1996073 -0.025607806 -0.16085216 0.07386564
-0.22133973 0.07291362 0.14989686 -0.113651924 0.03126693 0.21007591 0.07336262 0.16418652
-0.16422877 -0.091177285 -0.1845866 0.22159553 0.12105292 0.16051748 0.20554039 0.022265982
-0.19156843 0.107109696 -0.07358087 -0.1140819 0.13633007 -0.16408664 0.025200661 -0.14279345
0.13613185 0.073987335 -0.108919725 -0.18442132 0.3142107 -0.035027537 -0.15278947 -0.047752976
0.08437261 0.10930406 0.1234242 0.265863 -0.0847266 -0.016679462 0.08563376 -0.13908932
0.25331563 0.08334858 -0.014747411 0.27387908 -0.010982408 0.00614289 0.14648217 0.118075065

decoder.lin1.weight f4 [16, 64]
00000000: 98ee 17be 9aa2 bf3d 407f 473d aa72 60bd
00000010: fa4a 133e f3c8 8f3d 058d 6bbc 1fed ddbc
00000020: 242e 453e 815b 0f3e cd2f 2bbe d412 873c
00000030: b963 d53d 67cb 0ebe ddd5 2abd 1afc 983d
00000040: b2ed d83b e5e5 62bd 43a8 d13d 5492 99bd
00000050: 7372 e2bd f447 163d be8f 6cbd 8d0a 2dbe
00000060: 64a9 323b 5d74 57be 6d94 8c3d 4abd a53d
00000070: 1015 3e3e db40 64bd d2c6 663e 6283 313e
00000080: c86e 88bd 63e1 4a3d 83bb ccbd 00ce f13d
00000090: 2d66 fb3c bd7d 6cbc 2865 2fbe 587f 54bd
000000a0: e084 7e3c c6bc 343e 1f20 69bc 3e46 f53d
000000b0: fba4 e63d 9214 5bbd 0e64 253d 3b89 993d
000000c0: 87ff dcbd 7e95 20be 06b3 74bd 5878 cdbc
000000d0: 198d e1bd 08f1 3f3d 70da e83d 4339 87bc
000000e0: 8b9b 08bd dee5 08be fbe2 a33d fcff ae3d
000000f0: d79b 0a3e a76e a1bd 844f 1f3e 9301 343b
00000100: e0a7 47bd 152b ed3c 6d6a f4bd 3e58 ce3d
00000110: d322 8c3d fef6 533d c11e c4bd f9ce edbd
00000120: 0681 b1bc 080c 2dbc ef39 0cbe 0c1a 7cbd
00000130: 9b55 94bd 0fb3 b6ba e489 c0bd e54c 92bd
00000140: f9e9 803c dfa1 03be 3469 28be ad2e 80bc
00000150: 015d 11bd b904 b2bd 791c 9cbc 71f0 7cbd
00000160: def2 0e3e 7834 89bd 3e7d 5d3d 7c5c 113e
00000170: ea36 133d eea6 8ebd 9993 1c3e 6e53 9c3c
00000180: 7376 c83a edc3 1fbd 3d39 02bd 2407 ea3d
00000190: fb95 e03d cf60 31be 7ce6 b73c bb44 dfbd
000001a0: 1025 82bd 1cc4 133e 193e 80bd 3de1 0f3d
000001b0: ae7f 5d3d f6d9 313d 2f64 abbd 5f35 a439
000001c0: aead 013d 0516 43bd fcf6 843c 0c18 fbbc
000001d0: 9548 163d 1be2 a5bd 3ce2 053e 28e3 803d
000001e0: 4665 25bd 1678 bebd 9fbd 52bd 4378 babc
000001f0: 9cd5 dd3d 333c a03c d4e8 ab3d f632 093e
00000200: 9583 00bd d19b dcbb 6231 cabd 6c47 043d
00000210: 1899 f43c 417b 3dbc eb8c 343c aacd a8bd
00000220: bf0b 2e3e 7bc7 ee3d b6f2 1a3d 5e9c 96bc
00000230: fbb1 b03c d305 debd f7e8 853d d5f7 50bd
00000240: 5891 febd 17eb 6abd af7a 12bd bde0 373c
00000250: 20ee fe3d 0aff 703d 490d 2a3d 0ce6 36bd
00000260: a923 fc3d 0d80 d1bd 3c8a 0b3e ec0d bc3d
00000270: d821 9d3d 5295 28bd 9485 ea3d fbb6 4d3d
00000280: 5ecd 283e eb0f 99bd 01fc a8bd 6e5c 7cbd
00000290: 8c36 9abc e174 ebbd 7940 ccbb 04e3 073d
000002a0: 025d 303e 8bbd ad3d 969a 13be 4ecc 613d
000002b0: d659 f13d 1da5 22bd 779b babd 6e50 79bd
000002c0: c0f8 a13c f62a 34be 79e1 483d ae48 7a3d
000002d0: 71af 9dbd b918 22be c5ca e83c 112a 1abe
000002e0: de17 02bd f75b 31be 1d3b 733d 2b13 a9bc
000002f0: 0604 3bbd 4efb e4bc 75e5 9139 1edf 793c
00000300: ccd0 9cbd ca78 48bc c499 07bd 9df2 233c
00000310: 64cc 08bd f4c9 d7bd 1635 6e3b 4d97 47be
00000320: e8e8 463d a1a8 5d3e e6de ec3b 198b f6bd
00000330: bb63 b43d fd77 1cbe 4bda 7bbc df51 043e
00000340: c6da 58bd 1c10 d4bd 4c37 1fbe f2c2 4eb9
00000350: 713e c5bc dbe1 58bd ded0 693d 9fe6 d93c
00000360: 6a12 32bb 9048 cdbd d17f cb3d 1d6b fb3d
00000370: 5852 2c3d aba1 923b 9198 113e 4236 013e
00000380: 670a 91bd 289e 75bc 8c3d 3dbe fb23 a83d
00000390: bc35 ba3d 8b8f 9ebd c450 edbd 3891 86bd
000003a0: 3dbe 9e3d de86 0a3e 3c74 01be 5d0e 96bd
000003b0: 4cae 0e3e c1a7 7cbb 8a66 21be 0809 2cbd
000003c0: fa4b adbd be93 d3bd 0617 833d fe5d 293e
000003d0: 88fa 74bc 2543 16be 9424 f0bb 4354 c1bd
000003e0: 9866 033e 04ae 3abe 6acd 9a3d be0d 433e
000003f0: 3b0b e83b 5de2 25bd bfe2 ba3d 038f e5bc
-0.1483711 0.09357186 0.04870534 -0.054796852 0.1438407 0.0702075 -0.014376883 -0.027090607
0.19255883 0.1399975 -0.16717453 0.01648847 0.10419411 -0.1394478 -0.041707862 0.074699596
0.0066201324 -0.055395026 0.102371715 -0.07498613 -0.11056986 0.036689714 -0.05775427 -0.16898556
0.002726161 -0.21040483 0.068642475 0.08092745 0.18562722 -0.055725913 0.22536781 0.17335275
-0.06661755 0.04953135 -0.099967025 0.118068695 0.03068837 -0.014434275 -0.17128432 -0.051879257
0.01553461 0.17650136 -0.01422885 0.11976288 0.11261936 -0.053486414 0.040378623 0.07496878
-0.107909255 -0.15682027 -0.059741043 -0.025081798 -0.1101324 0.046860725 0.11369789 -0.016506797
-0.033351462 -0.13368937 0.080022775 0.08544919 0.1353601 -0.078824334 0.15557677 0.0027466759
-0.048744082 0.028951207 -0.119343616 0.100754246 0.0684258 0.051749222 -0.09576178 -0.116117425
-0.021667968 -0.0105619505 -0.13693975 -0.061548278 -0.072428904 -0.0013938862 -0.094013005 -0.07143573
0.015736567 -0.12854718 -0.16446382 -0.015647257 -0.035489086 -0.08692307 -0.019056546 -0.06175274
0.13959834 -0.06699461 0.05407452 0.14195436 0.035941042 -0.06965433 0.15290679 0.019082751
0.001529409 -0.03900521 -0.031792868 0.11427143 0.109661065 -0.17322086 0.02244877 -0.10901781
-0.06354725 0.14430279 -0.06261844 0.035126913 0.054076843 0.043420754 -0.08368718 0.00031320282
0.031659774 -0.04762842 0.016231053 -0.030651115 0.036690313 -0.08099767 0.13074583 0.062933266
-0.040379785 -0.09300248 -0.051450368 -0.022762423 0.108317584 0.019559955 0.08394018 0.13398346
-0.031375486 -0.006732442 -0.098727 0.032294676 0.029858157 -0.011565031 0.011019926 -0.08242352
0.16996668 0.11659142 0.037829123 -0.018385109 0.021569243 -0.10840955 0.06538575 -0.0510176
-0.12430066 -0.057353105 -0.03576153 0.011223015 0.124477625 0.058836974 0.041516576 -0.044652984
0.12311489 -0.10229502 0.13626951 0.09182343 0.07672471 -0.041158028 0.11451259 0.050223332
0.16484591 -0.07473739 -0.08251191 -0.061611585 -0.018824838 -0.11496902 -0.0062332717 0.033175483
0.1722298 0.08483418 -0.14414439 0.05512648 0.11784713 -0.039708246 -0.09111684 -0.06086772
0.019771934 -0.17594513 0.049043152 0.06110447 -0.076994784 -0.15829743 0.028417 -0.1505511
-0.031761043 -0.17320238 0.059382547 -0.020639023 -0.045658134 -0.027951863 0.00027827514 0.015250949
-0.07657012 -0.01223583 -0.033105627 0.010006574 -0.033398047 -0.105365664 0.003634756 -0.1949131
0.04856196 0.21646358 0.00722872 -0.120382495 0.088080846 -0.15280147 -0.015371869 0.12921856
-0.052943014 -0.10354635 -0.15548438 -0.00019718314 -0.024077626 -0.052949768 0.057083957 0.026599227
-0.002717162 -0.10023606 0.099364884 0.122762896 0.042070717 0.0044748387 0.14218356 0.12618354
-0.07082062 -0.014991321 -0.1848051 0.08209988 0.0909228 -0.077422224 -0.115876704 -0.06570667
0.07751129 0.1352801 -0.12641996 -0.07326958 0.13933676 -0.0038552138 -0.15761772 -0.0420008
-0.08461757 -0.10330914 0.06400876 0.16539761 -0.014952309 -0.14674051 -0.007328579 -0.094399
0.12832105 -0.18230444 0.07558711 0.19048211 0.007081417 -0.04049908 0.0912528 -0.028022295

decoder.lin1.bias f4 [16]
00000000: e2ee 44be a675 dcbc a86c 88bd b1ab d9bd
00000010: d74c b63d 8663 bbbe d5dd 0abe adf3 1bbe
00000020: 8828 7f3e 1b41 c63d 35b0 48bd 9e29 86be
00000030: 96ba 9c3c 8feb 373d 0982 c9bd 5638 3cbe
-0.19231752 -0.026911568 -0.066613495 -0.10628451 0.08901375 -0.36599368 -0.13561185 -0.15229674
0.24917805 0.09680387 -0.04899617 -0.26203626 0.01913194 0.04490238 -0.09839255 -0.18380865

decoder.lin2.weight f4 [1, 16]
00000000: 4935 d63d 85c9 b1bd a239 18be 3e04 383d
00000010: dea1 033d e4f0 593e 456d e03c b4be 383e
00000020: 9d8b 46be 4275 773c 627f 553d 80ec 1b3e
00000030: 47a4 803c f363 afbd b267 ba3d f2f5 223d
0.10459382 -0.08681015 -0.14865735 0.04492592 0.03213679 0.21283299 0.027395854 0.18041497
-0.19389196 0.01510364 0.052123435 0.15226936 0.015703334 -0.08563986 0.091018096 0.039785333
