gnn_model.pth (torch, 2848 bytes, 4 tensors)

conv1.bias f4 [16]
000000 a8 81 52 bd 6b 85 03 3f 00 00 00 00 75 3e 05 be
       -0.05139318 0.51375455 0.0 -0.13012107
000010 00 00 00 00 a1 16 db bb 00 00 00 00 59 6e 9e 3e
       0.0 -0.006686047 0.0 0.30943564
000020 1c ad ed be f4 e5 47 3e c7 d4 e2 3e b6 4b 98 3d
       -0.46421134 0.19521314 0.4430296 0.07436316
000030 62 a0 8c be 60 66 27 bd 46 ff 98 be 00 00 00 00
       -0.27466112 -0.040869117 -0.29882258 0.0

conv1.lin.weight f4 [16, 3]
000000 fd fa 38 be 02 b3 1e 3e f5 da 4d bc ac b4 19 3f
       -0.18064494 0.15497974 -0.01256441 0.6004131
000010 3e a3 ea bd 28 79 0d 3f b3 f3 7b 3e c2 6b 30 bc
       -0.11456917 0.55262995 0.24604683 -0.010767879
000020 8f bd 02 bf 38 34 6c be e8 ea 3f be 03 53 88 3e
       -0.51070493 -0.23066795 -0.18741953 0.26625833
000030 49 43 59 be a7 1f 0d bf 03 af af be 95 29 67 3e
       -0.21217074 -0.5512642 -0.3431321 0.22574456
000040 52 41 f9 3e 5f 6f 6f bd e2 b0 01 be e9 aa ac be
       0.48682648 -0.05845582 -0.12665132 -0.33724144
000050 02 c9 87 be de f4 f5 3a 0d 25 9a be 19 bd 15 3f
       -0.26520544 0.0018764993 -0.30106393 0.58491665
000060 eb cd 27 bf 83 a9 1d 3e d2 ab 3a 3e 7d d4 26 3f
       -0.6554858 0.15396695 0.18229607 0.6516798
000070 da 32 90 3e 20 ed ba 3d 89 dc 1f 3e 05 b7 7f 3e
       0.28163797 0.09127259 0.15611471 0.2497216
000080 12 6c 60 ba 4a be b0 3e 3f 09 b2 3d ff 25 36 3d
       -0.00085610256 0.3452018 0.0869317 0.04446983
000090 8c a1 10 bf 46 79 4d 3d 73 b5 e1 3e fa a3 15 bf
       -0.564965 0.050164483 0.44083747 -0.58453333
0000a0 56 26 91 3d a1 0b 24 bf 30 39 f5 bc a7 09 b0 3e
       0.0708739 -0.64080244 -0.029934496 0.34382364
0000b0 ee f5 0f 3e 1b d9 0c be ce 3a 6f bd ce 95 e6 be
       0.14058658 -0.13754694 -0.05840569 -0.45036167

conv2.bias f4 [6]
000000 b6 25 23 be c4 94 93 3e 4e 57 45 be c0 0d a8 be
       -0.15932354 0.28824437 -0.19271585 -0.3282299
000010 44 10 91 be 25 73 09 be
       -0.28332722 -0.1342283

conv2.lin.weight f4 [6, 16]
000000 18 64 67 3e 1f 1d ed be d6 21 f8 3d dd df 86 3e
       0.22596776 -0.4631128 0.12115829 0.2634267
000010 d5 f2 e3 3e 9b ab 78 be d1 f0 37 3e b4 e1 55 3e
       0.44521204 -0.24284212 0.17962958 0.2088688
000020 98 4f 74 be f0 44 ce 3c da d4 b3 3d 79 2f 32 3e
       -0.23858488 0.025179356 0.087808326 0.17400922
000030 ef 89 93 be a4 53 e9 bd 43 e8 44 3d 84 b3 10 be
       -0.28816172 -0.11392906 0.048073065 -0.1413098
000040 3d c9 b6 bd 45 e2 d4 3d cf 8d f8 3e a9 6a 1d be
       -0.08925102 0.1039472 0.4854569 -0.15372719
000050 3a a7 b4 be 8a 63 f7 3d 3c dc d4 3d ea 0d 02 be
       -0.35283834 0.120795324 0.10393569 -0.1270062
000060 fa 07 1d 3d a4 8e a2 3e 71 80 0c be c5 34 d0 3d
       0.038337685 0.3174945 -0.13720872 0.10166315
000070 bc e9 71 3e ae 92 05 be 61 c7 05 bf d3 d0 29 3d
       0.23624319 -0.13044235 -0.52257353 0.041458916
000080 4c a8 b4 bd 6c 69 a6 3e f5 33 c1 3e 9d 04 8c be
       -0.088211626 0.32502306 0.37734953 -0.2734727
000090 19 86 8f be bc 06 0f bf 61 9c 9d be 25 66 b6 be
       -0.28031996 -0.5586965 -0.3078337 -0.35624805
0000a0 4f 07 ca 3e d3 20 b4 be 62 1a cc be e2 69 b9 bd
       0.394587 -0.35181293 -0.39863878 -0.09053399
0000b0 9d e5 62 be ee b1 d9 be e1 83 3c 3e d9 38 b2 bd
       -0.22157903 -0.42518562 0.18409683 -0.08702249
0000c0 2f 48 fb be 2b a9 81 3d 72 8b fc 3e 8e a0 bb bd
       -0.4907851 0.06331094 0.49325138 -0.09161483
0000d0 75 2d f4 bc ca 0e ed 3d e5 bf 8f be 8e 6b ce be
       -0.029806832 0.115750864 -0.2807609 -0.40316433
0000e0 d2 7c 9e 3e 79 3e 02 bc f7 2e 14 bf 91 be 99 be
       0.30954605 -0.007949465 -0.5788416 -0.30028203
0000f0 97 ec bd 3e 2e 04 25 3e a1 66 93 bc 19 6e e6 be
       0.37094566 0.16114876 -0.017993273 -0.45005873
000100 4e 0c 52 bc 5d a4 20 be fb d9 46 3e 19 3f 08 3e
       -0.0128203165 -0.156877 0.1941909 0.1330532
000110 1a 32 f7 3e 83 8d 18 3e b6 48 d4 3e e2 14 b3 bd
       0.48280412 0.14897732 0.41461724 -0.087442175
000120 ac 85 a0 3e 0e d6 68 bd 1f c0 99 be 09 fb 5f 3e
       0.31351984 -0.056844763 -0.3002939 0.21873106
000130 f7 ba 34 3e d4 1c 4b be cc 4e 56 be a5 a3 4b bd
       0.17649446 -0.19835216 -0.20928496 -0.04971661
000140 9a 82 74 3c 75 22 05 bf 44 1e b8 3d ce 52 04 bf
       0.014923716 -0.520057 0.08990148 -0.5168885
000150 4d e1 8b be f2 66 0d bf 14 bc b5 3e 7b 34 ac be
       -0.27320328 -0.5523521 0.35495055 -0.3363379
000160 3a c8 51 be 13 bf cb 3d 4f 49 bf 3e 38 b6 1d bf
       -0.20486537 0.09948554 0.37360618 -0.6160617
000170 46 11 08 3e 87 3e 91 be 74 8d 63 3d 94 38 2b 3e
       0.1328784 -0.28368017 0.055554822 0.16720802
