gnn_model.pth (torch, 2848 bytes, 4 tensors)

conv1.bias f4 [16]
0	0x00000000	0.0
1	0x3f1297c9	0.57262856
2	0x00000000	0.0
3	0x3ddc63b2	0.10761203
4	0xbe2977e3	-0.1654964
5	0xbec8b7fa	-0.39202863
6	0xbe015829	-0.12631287
7	0xbde91630	-0.11381185
8	0xbd754cb9	-0.05988762
9	0x00000000	0.0
10	0xbda3e4dd	-0.080026366
11	0x00000000	0.0
12	0xbcb8fdde	-0.02258199
13	0x3f39af57	0.7253317
14	0x3e29ae21	0.16570331
15	0x3e210c60	0.15727377

conv1.lin.weight f4 [16, 3]
0	0xbeab6231	-0.33473352
1	0xbf056fab	-0.52123517
2	0xbf01581b	-0.50525063
3	0x3f8d4801	1.1037599
4	0xbeb12df4	-0.34605372
5	0x3e9ba2ec	0.30397737
6	0xbed6ac2f	-0.4192824
7	0xbebbd0e9	-0.36682823
8	0xbe96cd0a	-0.29453307
9	0x3ea28fd0	0.31750345
10	0x3b0da67d	0.0021614127
11	0xbf007821	-0.501833
12	0xbe281752	-0.16415146
13	0xbe2e96c6	-0.17049703
14	0x3e300715	0.17190202
15	0xbec185f2	-0.37797505
16	0x3e99580b	0.29949984
17	0x3d1a009c	0.037598237
18	0x3eae98db	0.34100994
19	0x3e44fdc1	0.19237424
20	0x3d455b0f	0.048182543
21	0xbd074092	-0.033020563
22	0xbddbb52b	-0.107279144
23	0x3e00ee2d	0.12590857
24	0xbde9bc06	-0.11412816
25	0x3b81be9c	0.00395949
26	0xbe18eb4d	-0.1493351
27	0x3e8d59ff	0.27607724
28	0xbe3984b6	-0.18117031
29	0xbf057899	-0.5213714
30	0xbf03aa65	-0.51431876
31	0xbebf2b06	-0.37337512
32	0x3e8775eb	0.26457152
33	0x3e29fabf	0.16599558
34	0xbed9d252	-0.42543274
35	0xbeafe13a	-0.34351522
36	0xbeb13ce1	-0.3461676
37	0xbebb0192	-0.36524636
38	0x3cd9af88	0.026572958
39	0x3ea3858b	0.31937823
40	0x3e93fdae	0.2890448
41	0xbc99e882	-0.018787626
42	0xbeb92d3b	-0.3616732
43	0x3d147390	0.03624302
44	0x3e08500e	0.13311788
45	0xbe83f54d	-0.25773087
46	0x3e30294c	0.17203254
47	0x3d43a615	0.04776581

conv2.bias f4 [6]
0	0xbe8d41cc	-0.27589262
1	0x3e5189d2	0.2046273
2	0xbe5dc1bb	-0.21655934
3	0xbf34510f	-0.70436186
4	0xbeef66a0	-0.46757984
5	0xbf238100	-0.63868713

conv2.lin.weight f4 [6, 16]
0	0xbe2897fe	-0.1646423
1	0xbe47c6f1	-0.19509484
2	0xbe69fe4e	-0.22850916
3	0x3e75efc0	0.24017239
4	0xbe30f633	-0.17281418
5	0xbe2fd726	-0.17171916
6	0xbe840488	-0.25784707
7	0xbf0f8f6c	-0.5607822
8	0x3e4e46eb	0.2014424
9	0x3eac4d6b	0.33652815
10	0xbeb7432f	-0.35793445
11	0x3e73201d	0.23742719
12	0x3ca1c5fd	0.019747728
13	0x3e185158	0.1487478
14	0xbe9812bb	-0.2970179
15	0x3df79099	0.12088127
16	0xbeb79e62	-0.35863024
17	0x3e9157b9	0.2838724
18	0xbd984f61	-0.07437015
19	0xbdabb605	-0.08384327
20	0xbd81415b	-0.06311294
21	0x3d9935b7	0.074809484
22	0xbeeccba8	-0.46249127
23	0x3d26afc6	0.040694974
24	0x3e0bf1a1	0.13666393
25	0x3ecafc3c	0.39645565
26	0xbe70f130	-0.23529506
27	0xbeffc1df	-0.499526
28	0xbea2ec04	-0.3182069
29	0x3eae02c2	0.3398648
30	0x3e13f9e8	0.144508
31	0xbe2b04cc	-0.16701049
32	0x3d07dd3d	0.033169974
33	0xbed9e0f0	-0.42554426
34	0xbea0b665	-0.31389156
35	0xbe51f603	-0.20504002
36	0x3cf4baa9	0.029874163
37	0x3dd1a24d	0.102360345
38	0x3d5fdc3f	0.054653402
39	0x3cc114d4	0.023569502
40	0x3c4e5b4a	0.012595007
41	0xbe3ebc74	-0.18626577
42	0x3ea5c5f8	0.323776
43	0xbec7a355	-0.389918
44	0x3eb7b384	0.35879147
45	0xbeef6210	-0.46754503
46	0xbe9d631b	-0.30739674
47	0xbec80514	-0.39066374
48	0x3e8630b8	0.26209044
49	0xbe8d6ea5	-0.27623478
50	0x3d6d8e9d	0.057997335
51	0xbf0f5358	-0.5598655
52	0x3e3dc0d3	0.18530588
53	0x3e8bf3f2	0.27334553
54	0xbdfec5ef	-0.124400966
55	0x3e9b3314	0.30312407
56	0xbec3c5d6	-0.38236874
57	0xbd89d355	-0.067297615
58	0x3daeac27	0.08528929
59	0xbdf15e81	-0.11785603
60	0xbe2e7191	-0.1703551
61	0xbdbcbb4c	-0.092154115
62	0xbbf6c09a	-0.007530284
63	0xbe80fc9b	-0.25192723
64	0xbea47aed	-0.32125035
65	0xbe151fc5	-0.145629
66	0xbeceda91	-0.40401128
67	0xbef5837a	-0.4795187
68	0xbec32b36	-0.38118905
69	0xbd7a3bf9	-0.06109235
70	0x3d2b8fc3	0.04188515
71	0x3dc8c16f	0.098025195
72	0xbe036c2c	-0.12834233
73	0x3e4df860	0.20114279
74	0x3e8e389d	0.27777568
75	0x3e0f5bca	0.13999858
76	0xbe575e93	-0.21032171
77	0xbe1a6f19	-0.15081443
78	0x3d418560	0.047246337
79	0x3e8d3e4d	0.27586594
80	0x3eabc8da	0.33551675
81	0x3e0e0f22	0.1387296
82	0xbe055a4d	-0.13022728
83	0x3e5220cb	0.20520322
84	0x3e74f668	0.23922122
85	0x3efaa0c3	0.48950776
86	0xbe5ec809	-0.21755995
87	0xbe93ba06	-0.28852862
88	0x3d92951e	0.07157348
89	0x3e745c60	0.23863363
90	0xbec16eb2	-0.37779766
91	0x3e03fbe7	0.12889062
92	0xbedc2dc0	-0.43003654
93	0xbefb1ebb	-0.49046883
94	0x3e8a3762	0.2699538
95	0xbefc1885	-0.49237457
